final_models/100D_final_comb.pth (torch, 16010 bytes, 5 tensors)

model.lstm.weight_ih_l0 f4 [32, 100]
000000 eb c2 4c 3e 38 cb c8 be 72 ae 3e 3d 19 df 29 be
       0.1999623 -0.39217544 0.046553083 -0.16589011
000010 d5 45 2f be e3 23 b5 3d 56 33 a4 bd 79 17 63 be
       -0.17116483 0.088447355 -0.08017604 -0.22176923
000020 38 4b 23 3e c0 5f ce 3d c6 ed 04 be ce da 8a 3e
       0.15946662 0.100768566 -0.12981328 0.2712006
000030 f6 c8 46 3e fb 53 a4 3e 50 a6 4a bd 04 75 6a be
       0.19412598 0.32095322 -0.049475014 -0.228962
000040 6b bf 59 bd 0d ac bf bd da a3 0d be ce b5 c4 3e
       -0.053161066 -0.09358988 -0.13832036 0.38419956
000050 14 62 68 3e 9f 09 a1 3e f5 48 2a be 58 c8 ef bd
       0.22693664 0.31452653 -0.16629393 -0.117081344
000060 67 18 8f 3d c0 2d 9e be 7e ff 0e 3e 4a 60 ad be
       0.06987076 -0.3089428 0.1396465 -0.33862525
000070 bf a5 42 3e 58 66 b4 bd 37 4f 08 3e 60 4f ba be
       0.1900854 -0.08808583 0.13311468 -0.36388683
000080 8e a2 72 3e 5a fc 00 bd f2 98 52 be 80 8c 06 be
       0.23694822 -0.03149066 -0.20566157 -0.13139534
000090 f9 e1 41 be e8 27 a6 3e 34 82 23 3e 1f 76 37 3e
       -0.18933858 0.3245232 0.15967637 0.17916153
0000a0 16 d3 13 3d 0e 16 7f be e9 6b 25 3e d5 4c 09 3e
       0.03608998 -0.24910757 0.16154446 0.13408215
0000b0 28 35 6b bd 88 2d 0d be 56 0d 7d 3e 60 e4 56 be
       -0.05742374 -0.137869 0.24712119 -0.20985556
0000c0 f8 81 ce 3d 62 e0 c0 ba eb 74 14 3e f3 f3 66 be
       0.10083383 -0.0014715309 0.14497726 -0.22553997
0000d0 96 ac b5 be 2b db 69 3e 07 7d 2b 3e 27 e6 83 bd
       -0.35483235 0.22837512 0.16746913 -0.064403825
0000e0 d3 e3 9a be cc d8 cf 3e 69 c6 0a 3d 7f f3 90 be
       -0.3025194 0.4059509 0.033880625 -0.28310773
0000f0 60 38 47 3e 65 07 25 be 4b cf 96 be 6f e0 fd bb
       0.19455099 -0.16116102 -0.29455027 -0.007747702
000100 a5 6b c4 3d fa 2d ae 3d 20 2f b7 3e 71 1c 6a bd
       0.09590844 0.08504863 0.3577814 -0.05715603
000110 e4 ce a3 3d 4b ea c0 3d 7f 85 45 3e ae 45 76 3e
       0.07998446 0.09419688 0.19289206 0.24050018
000120 68 c5 a2 be 00 79 8f 3d 41 21 50 3d 05 45 86 3e
       -0.31791234 0.07005501 0.050812963 0.26224533
000130 5b a8 82 3e 4f 2d a6 3d 1f cc 10 bc 2f 01 c7 3e
       0.2551907 0.08114111 -0.008837729 0.3886809
000140 7a 77 af bc b6 c2 db bd 08 4b 3e 3e 80 fd 38 be
       -0.021419276 -0.107304975 0.1858331 -0.18065453
000150 7c 34 2c be b1 ac 84 bd 05 f8 c5 bd 3c e5 e0 3d
       -0.16816896 -0.06478251 -0.096664466 0.10981223
000160 c3 52 18 be d7 ff b0 3e d3 93 8e be 44 77 aa 3e
       -0.14875321 0.3457019 -0.27847156 0.33294117
000170 81 fc da 3b e6 ba a8 3c 8d 76 32 bd 65 ae 66 3d
       0.006682933 0.020596933 -0.04357009 0.05631866
000180 fb 35 50 3d 70 10 a8 3d 07 07 43 3e d1 07 96 bd
       0.05083273 0.0820626 0.1904565 -0.073257096
000190 5c 09 01 3e 70 8b 83 3d 37 80 9b b9 4b 0f c5 3e
       0.12601227 0.0642308 -0.0002965943 0.3848823
0001a0 fd fc 6a 3e 3e b6 26 3e 05 39 f2 bd 94 59 5b 3e
       0.2294807 0.16280457 -0.11827282 0.2142089
0001b0 79 a2 6e be 92 de d0 3e 76 d9 60 bd 3e 95 9f 3e
       -0.23304166 0.40794808 -0.054894887 0.3116855
0001c0 54 2c 06 3e 2b 10 0d be 2d bc 64 bd d8 06 67 3d
       0.13102847 -0.13775699 -0.05584352 0.05640301
0001d0 e7 59 8b 3e a9 78 67 be 6e 72 3e bc 26 88 b0 3e
       0.27217028 -0.22604622 -0.011623962 0.34478873
0001e0 3b 83 86 3e 81 42 7d be 83 c5 11 3e 8d c7 41 be
       0.26271996 -0.247324 0.14235501 -0.18923779
0001f0 87 be 1b 3e 47 40 18 be 39 a1 30 be a5 db eb 3d
       0.15209399 -0.1486827 -0.17249002 0.11516503
000200 cd 25 84 3e 50 cf c0 3e 18 33 85 3e 44 d4 dd 3d
       0.2581009 0.37658167 0.26015544 0.10831502
000210 b9 f9 31 3e 5f f0 84 be 56 6d ac 3e 0f 89 5b 3e
       0.17380418 -0.2596464 0.33677167 0.21439002
000220 ee b5 29 3e d7 59 98 3e 02 85 41 be fe 22 09 3e
       0.16573307 0.29756042 -0.18898395 0.13392255
000230 35 5b 0d be af d0 b6 bd b6 1b 67 3e a0 5e 25 be
       -0.13804324 -0.08926522 0.22569165 -0.16149378
000240 30 13 4e bd 4b 42 54 3e 52 a0 8b 3e bc a4 90 bd
       -0.050311267 0.20728414 0.27270752 -0.070626706
000250 13 81 db 3e 1c 71 33 3e 82 26 66 be 50 93 fa 3b
       0.42871913 0.17523617 -0.22475627 0.0076469555
000260 6f a3 b5 3e b7 46 33 be 9e 9c 55 be 4a db 87 3e
       0.35476252 -0.17507444 -0.20860526 0.26534492
000270 c8 f8 9d 3e 8b 16 d0 3e 0d b3 43 3d 28 67 6e bc
       0.30853868 0.406422 0.047778178 -0.014550962
000280 8f 9b 6f be b0 6e c2 3e df e2 ac 3d 2a ec 61 3c
       -0.23399185 0.37975073 0.0844171 0.013789216
000290 47 a0 2b 3e 5f 88 f5 bd cc 3b 90 3d d5 30 9f bd
       0.1676036 -0.11988901 0.07042655 -0.07772986
0002a0 5c e4 5a 3e 8c cc 1c be fd 8b 88 3d 62 3b 90 3d
       0.21376175 -0.15312403 0.06667326 0.070425764
0002b0 95 1b c3 3e 21 92 ba 3e 7d bd 20 bd 5e 9d 53 3e
       0.3810698 0.36439613 -0.03924321 0.206655
0002c0 44 56 f8 bd 15 0a 0d 3e 20 12 20 be 5e 83 1e bd
       -0.12125829 0.13773377 -0.15631914 -0.0386995
0002d0 33 87 d1 3e 9f a2 ae 3d a6 bf 87 3e d0 42 ae 3e
       0.4092346 0.08527111 0.26513404 0.3403535
0002e0 33 06 d5 bd a7 84 4d 3e ce 13 01 3e 09 ea 56 3c
       -0.10401573 0.20070134 0.12605211 0.013117322
0002f0 ac 67 7f be 9a ed 72 3e 70 d7 86 bd d9 9f 81 3e
       -0.24941891 0.2372345 -0.0658406 0.25317267
000300 b5 ad 6d 3e 92 74 48 be 7d c2 6e 3e a6 84 8b 3e
       0.23210795 -0.19575718 0.23316379 0.2724964
000310 aa 41 16 be a7 46 0f 3e f1 00 ad 3d 58 7b 68 be
       -0.14673486 0.13991795 0.08447445 -0.22703302
000320 e7 11 ea 3e cb 54 d1 3e b7 4c 84 bd 7b 1e 4d 3e
       0.45716783 0.40885004 -0.06459945 0.20031159
000330 f2 d7 24 3d b6 a2 42 be 59 09 a4 3e ac 83 a2 3e
       0.040245004 -0.19007382 0.32038382 0.31741083
000340 1c 62 6d be 87 90 e8 3d 29 8f 87 3e f6 59 67 3e
       -0.23181957 0.113556914 0.2647641 0.22592911
000350 21 77 5b be fa d7 f2 3d bc 88 c8 3e 9e a6 12 3c
       -0.21432163 0.118576005 0.3916682 0.008950857
000360 07 78 96 3e 05 14 8b 3d 58 1f 8e 3e 69 28 60 3e
       0.2938845 0.06790928 0.27758288 0.21890415
000370 22 fb e3 bd 4b 73 a8 bd 5d fe a2 3e 69 e3 ba 3e
       -0.11131884 -0.082251154 0.3183469 0.36501625
000380 a6 87 81 3d c2 84 4c 3e 7f ad 30 3e 57 a1 90 3e
       0.06324701 0.19972518 0.17253684 0.28248093
000390 41 da ae bd 45 13 d3 3e 1b 80 0e be 87 91 81 3e
       -0.085377224 0.4122564 -0.13916056 0.2530634
0003a0 37 ea 53 3e 4e 26 cb 3e 56 e3 16 3e 37 17 45 3e
       0.20694815 0.39677662 0.1473516 0.19247137
0003b0 5f e5 35 be 10 77 de 3d a7 50 c2 3e 27 0c d5 3e
       -0.1776328 0.10862553 0.37952158 0.41610834
0003c0 2e c0 65 3e 06 9c b0 bc 3f 83 bb 3e 11 32 13 3d
       0.22436592 -0.021558773 0.3662357 0.03593642
0003d0 da 36 3d be 12 b6 a7 3c 3c 8e 6b 3e 08 c2 49 be
       -0.18477955 0.02047256 0.23003477 -0.19702923
0003e0 19 53 ec 3e b7 79 03 3e 40 93 46 3e 6d 1f 90 bc
       0.46157148 0.128394 0.19392109 -0.01759311
0003f0 59 9d b7 3e ba 00 72 3e 67 43 d4 bd cf a1 d8 3d
       0.35862234 0.2363309 -0.103644185 0.105777375

model.lstm.weight_hh_l0 f4 [32, 8]
000000 8b 89 aa 3e 2d cd e2 3e 6e 7d 57 3e 49 08 93 3d
       0.33308062 0.44297162 0.21043941 0.07179315
000010 d0 81 ea 3c cf 64 08 be b4 7c f3 3c 84 19 fd 3d
       0.028626353 -0.13319705 0.029722549 0.12358382
000020 95 9c bf bd f9 ba 94 be 70 ac 5c 3e cc bc cf 3d
       -0.093560375 -0.290489 0.21550155 0.10143432
000030 63 e6 9a be 93 7c 6c 3e 30 97 2f be 19 2c 88 ba
       -0.30253896 0.23094396 -0.17147517 -0.0010389119
000040 dd f7 96 3e 8f 6c 9d 3d 0c 72 42 be e6 29 b0 be
       0.2948598 0.076867215 -0.18988818 -0.34406966
000050 72 97 23 be 35 31 0f 3e 28 80 95 bb c0 15 c3 3e
       -0.1597574 0.13983615 -0.0045623966 0.3810253
000060 35 ec 1b bd 2e d6 b0 3d f9 6a 14 3d db 91 b6 be
       -0.03806706 0.086346015 0.03623483 -0.35658154
000070 c7 d5 77 be 32 69 49 be 02 f3 dc 3d 50 b8 5a 3e
       -0.24202643 -0.19669035 0.107885376 0.21359372
000080 b0 74 6e be 2d 79 7f bd ee f2 21 3e 94 0a 2a be
       -0.232867 -0.06237142 0.15815327 -0.16605598
000090 66 bd 30 bf 1d 35 83 be 1a dc cf bc aa e8 28 3f
       -0.69039 -0.2562646 -0.025373507 0.6598002
0000a0 da ef 22 3e 70 75 60 bd c2 2b 9a be e6 6e 91 be
       0.15911809 -0.054799497 -0.3011151 -0.2840492
0000b0 e6 fb 05 3e 8c 36 cf 3e 52 3b 4a 3e eb 04 4c 3d
       0.13084373 0.40471303 0.19749191 0.049809378
0000c0 bf d3 df 3c 8a 9f 07 3e ca 43 e1 3e 0f 49 d6 3d
       0.027322648 0.13244453 0.4399703 0.104631536
0000d0 41 42 ad bb fd af 7b be 9e 40 87 be c0 00 68 3e
       -0.005287439 -0.24578853 -0.26416487 0.22656536
0000e0 aa af 72 be a8 79 9f bd 8a 6d 9b 3e ca d7 8a 3e
       -0.23699823 -0.07786876 0.3035701 0.2711776
0000f0 a4 fb 0b be 8d ac 2d 3d 50 71 11 be 1a 6b 41 be
       -0.13670212 0.042400885 -0.14203382 -0.18888512
000100 90 26 85 bd 1e be 8c bd f5 47 3a be 0d 7f c7 3e
       -0.06501496 -0.068721995 -0.18191512 0.3896412
000110 0e c3 89 3e fd 01 2a be ee 82 2c 3e 2c a7 69 3e
       0.26906627 -0.16602321 0.1684682 0.22817677
000120 e8 e3 4b 3e 3b ba 6c 3e 49 74 0c be cf 94 73 be
       0.19911158 0.23117916 -0.13716234 -0.23787235
000130 85 12 9f be 76 25 95 be 52 e7 ce be df 11 40 3d
       -0.31068817 -0.29130143 -0.40410858 0.046892043
000140 b8 25 e1 3d ce b7 ff 3d 42 75 ab 3e 91 d7 c4 be
       0.109935224 0.1248623 0.33487898 -0.38445714
000150 6c 59 2f 3e 23 d4 72 3e 14 e0 e9 be 0a cf 13 be
       0.17123955 0.23713736 -0.4567877 -0.14434448
000160 ff 0e 1b be 8d 33 bc be 6e ae f3 bd 3b 3b 49 be
       -0.1514244 -0.3675808 -0.11898504 -0.19651501
000170 0e 13 87 be 27 9b 2e 3e 62 cf 40 bd 11 25 3c be
       -0.26381725 0.17051373 -0.047072776 -0.18373515
000180 e8 73 7d be 96 0d cf be f5 ae d8 3d 47 03 84 be
       -0.24751246 -0.40440053 0.105802454 -0.2578375
000190 e7 d6 da bd 05 a7 48 bf 5a 20 87 be 36 9b e1 3d
       -0.106855206 -0.7837985 -0.2639187 0.11015932
0001a0 3b 03 8b 3c 2b dc 5a be c8 26 93 3e d8 61 ef 3d
       0.016969314 -0.2137305 0.28740525 0.11688584
0001b0 c5 02 e6 3d 18 04 80 bd 46 f9 76 bc 2a 32 06 3d
       0.11230997 -0.06250781 -0.01507408 0.032762684
0001c0 af bd 8f 3d 33 ec 6e 3e 0f c9 54 3e cf b8 33 3e
       0.07018601 0.2333229 0.20779823 0.17550968
0001d0 d5 fc 25 3e 06 0b 80 be ea c3 39 3d ad 9b c2 bd
       0.16209729 -0.2500841 0.045352854 -0.09502349
0001e0 d0 0c c6 be 71 15 d3 bc 6b e0 2b be 99 b0 53 3c
       -0.3868165 -0.02576706 -0.16784827 0.012920522
0001f0 29 1a 41 be 55 11 83 be 4d 0c 00 3e e9 c2 ca 3d
       -0.18857636 -0.2559916 0.12504692 0.099004574
000200 2b dc 56 bd a6 2b f5 3e 9f ce 7d bd 7f 5a 42 3e
       -0.052456062 0.47884864 -0.061964627 0.18979834
000210 9f aa 0c 3f 2f 55 8f 3e f2 99 a0 3e f9 92 70 be
       0.5494785 0.27994677 0.3136745 -0.23493566
000220 e0 2e d4 bd c4 fa b1 3e 43 08 3b bd 10 bf 87 3d
       -0.10360503 0.3476163 -0.045662176 0.06628239
000230 71 19 e1 3e ea 9d 56 3e ed fe c5 3e 01 f3 2f 3e
       0.43964723 0.20958677 0.38671055 0.17182542
000240 4a e8 95 be 05 47 6f 3b 71 b6 c2 3e 21 28 bd bd
       -0.29278785 0.0036510837 0.38029817 -0.092361696
000250 50 9a 0a 3e d2 8a 9e bc 2e 10 83 be b4 78 51 be
       0.13535428 -0.019353304 -0.25598282 -0.20456201
000260 3f a6 cf 3d b4 8b e4 3e 35 35 0f 3e 00 5a b7 3e
       0.10139131 0.44637835 0.1398514 0.35810852
000270 c1 89 2b be 3f 5b 82 3e 13 30 b3 3e b3 77 c6 be
       -0.16751768 0.2546024 0.34997615 -0.38763198
000280 4b 95 b2 3d 67 62 a7 3e 87 06 75 be ce 0c 97 be
       0.087198816 0.32692263 -0.23928271 -0.29501957
000290 07 e5 52 3d df 91 a0 3e 96 55 23 be cf 5b db be
       0.05148795 0.3136129 -0.15950617 -0.42843482
0002a0 d4 1b 34 3d 0b 8c aa 3e 8d b1 1a bf 8d 96 fd 3e
       0.04397185 0.3330997 -0.6042717 0.49528924
0002b0 c1 be b6 3c c4 20 70 3d 8f ed 4a bd bb f4 b9 be
       0.022307755 0.058624998 -0.04954296 -0.36319527
0002c0 71 ea 21 3e dd 75 eb bd 8c 4f 2f 3d f8 2a da 3c
       0.15812089 -0.1149709 0.04280047 0.026631817
0002d0 6f 5a e2 bd 23 df 8b be 75 58 34 3e ab 9c 30 be
       -0.11052405 -0.27318677 0.17611869 -0.17247264
0002e0 bb 0a a0 be ab 06 0b 3e 35 ca 92 3e 34 4e 72 3e
       -0.31258187 0.13576762 0.28669897 0.23662645
0002f0 d8 31 c3 be 09 17 ee bd dc f2 d9 bd 5b 1d c5 3e
       -0.38123965 -0.11625487 -0.10642025 0.3849896
000300 cd 3a 10 bd c1 d5 ee be 2c 82 8b 3e 6a 51 20 be
       -0.035212327 -0.46647456 0.2724775 -0.15656057
000310 44 19 b8 be e3 68 cd be 23 4e 4a 3e 90 b9 9e bd
       -0.35956776 -0.40119085 0.1975637 -0.07750237
000320 65 2b 13 bd f8 4a 01 bf ec 62 79 3e 47 ed 35 3e
       -0.035930056 -0.5050502 0.24354142 0.17766295
000330 a8 67 d7 bb 79 29 69 be 58 7c eb be af e7 43 be
       -0.006573636 -0.22769727 -0.45993304 -0.19131349
000340 33 a7 c8 be 0f 8d b6 be 71 0b a1 3e 09 6d 01 3c
       -0.39190063 -0.35654494 0.31454042 0.007899531
000350 2a 8e d0 be dd 0e c2 be e3 9b b8 be a7 34 96 3e
       -0.40733463 -0.37901965 -0.36056432 0.29337046
000360 ae 23 40 bf f5 03 19 bf 69 76 c0 3e 17 f1 de be
       -0.7505444 -0.5977166 0.3759034 -0.43543312
000370 3c 42 89 be ea cf d2 be 87 15 ff be cf a8 3a 3f
       -0.26808345 -0.4117425 -0.49821112 0.7291383
000380 8d 50 01 bf bc c0 ca be 92 c3 b6 3e 3a ca 42 bc
       -0.50513536 -0.3960017 0.35696083 -0.011889035
000390 8b db c5 bc 3a a3 c5 be 4a a9 cc 3b 5a 4b 34 3e
       -0.024152538 -0.38601094 0.0062457668 0.1760687
0003a0 75 fd d1 bd 81 78 66 be 3d 09 cb 3c 69 9f 8c be
       -0.10253421 -0.22506906 0.024784679 -0.2746537
0003b0 14 95 cd 3d 78 69 2a 3d 4d 71 6a be ea ce b4 3e
       0.100382 0.04160449 -0.22894783 0.35314113
0003c0 c7 08 76 bc ba b2 c7 bd 7c 57 39 bd 35 25 59 3e
       -0.015016741 -0.09750886 -0.045249447 0.212056
0003d0 50 7a 81 be 7b 44 60 be e2 b1 aa bd 1a fa bc 3e
       -0.2528863 -0.21901123 -0.0833471 0.36909562
0003e0 a1 87 c2 be 9c b8 2c 3e 4f 9b e8 3e 0c 0b 47 3b
       -0.37994102 0.16867298 0.4543099 0.0030371575
0003f0 5f bb 0c 3e a6 aa c1 3d 63 cb 27 be 8c 8c e9 bd
       0.13743351 0.09456377 -0.1638618 -0.1140376

model.lstm.bias_ih_l0 f4 [32]
000000 0f 08 02 3e 55 a2 30 be 38 19 6e 3e 52 ee 67 bd
       0.12698387 -0.17249425 0.23251808 -0.056623764
000010 54 1f 3a 3e 82 7e bf 3c 8e 3a d4 3d c0 8c 73 be
       0.18176013 0.023375753 0.10362731 -0.2378416
000020 34 57 99 be c8 af 80 bc 6c 43 a4 3e 5c 02 6c 3e
       -0.29949343 -0.015708819 0.3208269 0.23047775
000030 88 c1 d6 3e e2 3a cc bd fb 95 0d be 1f aa cc 3d
       0.41944528 -0.099721685 -0.13826744 0.099933855
000040 a2 5c 26 bf c6 73 35 be 50 1b a6 bd c1 77 d6 bd
       -0.64985096 -0.17719945 -0.08110678 -0.1047206
000050 c6 51 c4 bc 5b bc ae be 4c 92 44 bd a2 dc a3 3e
       -0.023964774 -0.3412808 -0.047991082 0.32004267
000060 5f 78 3e 3e 7e 9e ae 3d 11 b3 3f 3e ef 0e 9c 3d
       0.18600605 0.08526324 0.18720652 0.07620036
000070 bd 90 e8 3e 32 ac da 3e aa 7c 94 3d a5 35 3c 3e
       0.45422927 0.427095 0.0725034 0.18379839

model.lstm.bias_hh_l0 f4 [32]
000000 f6 28 66 be 80 11 73 3d 52 c3 d9 3e c8 da 42 3c
       -0.22476563 0.05934286 0.4253183 0.011892982
000010 48 38 41 3f a3 2a ba bd ba 4b 9d 3d 85 17 bf bd
       0.75476503 -0.090901636 0.07680459 -0.09330658
000020 01 8f ca 3d ee 33 06 be ca f4 88 bd b8 ef ab 3e
       0.09890557 -0.13105747 -0.06687315 0.33581328
000030 d2 99 24 3f 21 cd 59 be 63 69 9f 3d 29 34 9e bd
       0.6429721 -0.21269657 0.07783773 -0.077247925
000040 9f 87 17 bf 48 0f 2d be 20 81 5b bd 2d 08 c9 bb
       -0.59191316 -0.1690036 -0.05358994 -0.006135008
000050 96 d7 d7 be 5a 2d 08 bf ee 4b f5 bd 80 dd f9 3d
       -0.42156667 -0.531942 -0.11977373 0.12200451
000060 c8 b6 60 be 28 2b 44 3e 13 07 c8 bc 51 71 03 3f
       -0.21944726 0.19157088 -0.024417436 0.5134478
000070 8c a0 17 be 09 0e 54 be 72 7e 63 3e 4c 88 1a be
       -0.14807338 -0.20708479 0.22216204 -0.15091056

model.linear.weight f4 [1, 8]
000000 0d 49 32 3f 39 11 e3 3e c7 33 d6 be 0e f4 44 3f
       0.69642717 0.44349077 -0.41836378 0.769349
000010 ca 3b 48 3f 0e 5d 69 3f 84 8a 14 3f 7f 3c fe be
       0.7821623 0.91157615 0.5802386 -0.4965553
