final_models/100D_final_InDiD.pth (torch, 16010 bytes, 5 tensors)

model.lstm.weight_ih_l0 f4 [32, 100]
000000 af 5b 1a 3e ac de aa 3e 3f 1b fd bd 29 d5 aa bd
       0.15074037 0.3337301 -0.123587124 -0.08341438
000010 95 a1 f8 3c 00 52 76 3e 40 f6 18 3e 1f aa d1 3e
       0.030350486 0.24054718 0.14937687 0.40950105
000020 00 bc 06 3e dd 06 76 3e 1d b0 4d 3d 8f 4c aa 3d
       0.13157654 0.24026056 0.050216783 0.08315384
000030 d9 3b 33 be 80 8d aa bd 24 ab d6 3c 33 48 22 3e
       -0.17503299 -0.0832777 0.026204653 0.15847854
000040 b2 f3 8f 3e 3f 34 b6 3e da 15 8e bd e8 a7 9d bc
       0.28115612 0.35586736 -0.069377616 -0.019245103
000050 cd 99 90 3e 72 5a e1 3e 21 66 d4 3d d8 6f cb 3e
       0.2824234 0.44014317 0.10371042 0.39733768
000060 05 c5 c6 3d 65 0a 37 3e da 48 ea 3e a9 f9 28 be
       0.09705547 0.17875059 0.45758706 -0.16501488
000070 60 08 78 bd 21 7e 81 3d 77 c7 e7 3c 54 51 dd 3e
       -0.060554862 0.06322885 0.028293354 0.4322611
000080 be 54 82 bd 71 0c 4f 3c 00 d7 8f bd 23 a9 22 be
       -0.063638195 0.012637244 -0.0702343 -0.15884833
000090 2c cc 5b bd 9b b7 e5 3e 05 f0 99 3e 71 2f a5 3e
       -0.05366151 0.44866642 0.30065933 0.32262757
0000a0 4b 64 37 3e 41 4f fe bc 49 7c 5c 3e 90 d4 2f be
       0.17909352 -0.03104365 0.21531786 -0.1717093
0000b0 4b cf ba bd 45 2b 77 bc ec 92 bb 3e 8f e6 b5 3e
       -0.09121569 -0.015086 0.3663553 0.35527465
0000c0 b9 0e fb bb 35 24 19 3e 4d fe bf 3e c1 e6 fa 3e
       -0.007661667 0.14955218 0.37498704 0.49004176
0000d0 fb 7b 94 3e bc 05 56 3e 02 45 c6 3e 46 7a 4b bd
       0.2900084 0.20900625 0.38724524 -0.049677156
0000e0 94 8a 5f 3e a1 b2 df bd a2 b5 a7 bd 77 a2 aa bc
       0.21830207 -0.10922743 -0.081889406 -0.020829422
0000f0 49 5b 9c 3e 24 52 a4 3e fa 2d 32 bd a7 00 7f 3e
       0.30538395 0.32093918 -0.043500878 0.24902593
000100 57 fa b2 3e 0b a9 d1 3d 4b 43 2b 3e 44 21 5b 3e
       0.3495662 0.102373205 0.16724889 0.21399409
000110 b6 d4 be 3e 86 46 f4 3e 50 fc e4 bd 1b b6 8f 3c
       0.3727166 0.47710055 -0.11180937 0.01754289
000120 34 42 8b 3e 5e 8e e2 3e a4 c8 e4 3e b7 60 e5 3e
       0.27198946 0.44249243 0.44684327 0.4480035
000130 ca ba 58 3e 26 be 10 be 9e fd 3d 3e 4a 12 56 bd
       0.21165004 -0.14135036 0.18553779 -0.052263536
000140 35 44 25 be 46 db e7 3e b8 df db 3e db 2d 39 be
       -0.161393 0.4528448 0.4294412 -0.18083899
000150 10 78 6d 3e 9d 2a b3 3d f1 01 da 3d f1 28 29 bc
       0.23190331 0.08748362 0.106449015 -0.010324703
000160 72 e8 96 3e d1 5c 5e bd 6a bd 89 3e 88 a8 aa 3e
       0.29474217 -0.054287735 0.26902324 0.33331704
000170 c0 33 cd 3e 32 c8 95 3e 27 6c 43 be 36 cf a7 bd
       0.40078545 0.292543 -0.19084226 -0.08193819
000180 ee 4a a3 3e f5 92 65 3e 97 d7 d4 bd 64 71 2a bd
       0.31893104 0.22419341 -0.10392683 -0.041612044
000190 8c 97 f0 3e 85 97 cb 3e 3a 7a af 3c b5 41 be 3d
       0.4699062 0.39764038 0.021420587 0.09289876
0001a0 7d 90 1f be cf 4d 32 3e 28 dc dd bd 7c 48 c3 bd
       -0.15582462 0.17412494 -0.10833007 -0.0953531
0001b0 27 ef 18 3e e5 2f 59 3e 8a 5a f7 3c c7 e6 b7 3e
       0.1493498 0.21209677 0.03019454 0.35918257
0001c0 b9 64 d0 bc 90 0b f2 3e 10 51 c5 3e 68 e9 e2 bd
       -0.025438653 0.47274446 0.38538408 -0.11079675
0001d0 72 25 9b 3d 05 2e 35 3e fc 5d 4c 3e 45 6f 62 3e
       0.075755015 0.17693336 0.19957727 0.22112758
0001e0 d1 bc 9c 3e 55 be 48 3e 04 09 01 3c 34 ae a9 3e
       0.30612805 0.19603856 0.007875685 0.3314072
0001f0 4e 74 15 be 0f 8c d7 bc dc b9 a9 3d 08 b4 82 3c
       -0.14595148 -0.026311902 0.08287403 0.015954986
000200 c6 02 4b 3d 26 11 c8 bd 6b 54 b4 3d d8 ab 6e 3e
       0.04956319 -0.09768896 0.08805164 0.2330774
000210 e5 5e 81 bd 86 71 21 3e ca 5a d6 3e c5 7c 15 3e
       -0.06316928 0.15765962 0.41866142 0.14598377
000220 1c 12 37 3e 00 cc 12 3e 2a c7 6c 3e 37 df bd 3e
       0.17878002 0.14335632 0.2312285 0.37084362
000230 19 b5 fd 3e 5a 6e ba 3e 93 05 f8 3e aa 4e 1c 3e
       0.4955223 0.36412317 0.48441753 0.15264383
000240 c4 91 0b be 6b 8e 15 3c d1 34 cc 3e 85 af 3d 3e
       -0.13629824 0.009128193 0.39884046 0.18523987
000250 48 63 2c 3b 92 9b b0 bd 14 1c 0b be 13 7f ef bd
       0.0026304293 -0.08623423 -0.1358493 -0.11694159
000260 0b ae c6 3d c3 ba be 3e a2 f7 b6 3e 5b 9b 1d be
       0.09701165 0.37251863 0.35735804 -0.15391295
000270 80 74 bd 3e 3c 79 ab bd c1 ba be 3d 1c 07 02 3d
       0.37002945 -0.08372733 0.09312964 0.03174506
000280 9a 92 e6 3d 0b 4c d3 3d bf 1a 01 be bc bd fc bd
       0.11258431 0.103172384 -0.12607859 -0.123408765
000290 a4 2c 74 3d 0b 88 29 3e 38 2b 5e 3c 37 bc 95 3e
       0.059612885 0.16555803 0.013560109 0.2924516
0002a0 4c 45 10 be 74 e2 1f 3e cc 58 f4 3e 99 f3 a2 3c
       -0.14088935 0.15613729 0.47723997 0.019891547
0002b0 de ca ee 3e e6 26 96 3e 98 9b 0f be 18 7c c2 3e
       0.4663915 0.29326552 -0.14024198 0.379853
0002c0 e6 a2 03 3e fd 1c d0 3c e9 a8 df 3e 51 d1 f2 bd
       0.1285511 0.025404448 0.43683556 -0.1185633
0002d0 2a 99 32 3e 83 c4 ca 3d 17 9f d5 3e 9d 67 87 3e
       0.1744124 0.09900763 0.41722938 0.26446238
0002e0 d7 8f a8 3e 8b 04 96 3e d8 88 cc 3d 37 1c d6 3d
       0.3292224 0.2930034 0.099870384 0.104546
0002f0 7d 09 c9 bd 04 f4 b2 3e 3c 35 de 3e 9b ec cd 3e
       -0.09816263 0.34951794 0.4339999 0.40219578
000300 4a d3 95 bd 0d 7a 3d 3e 92 91 81 bd bf f1 aa bc
       -0.07315691 0.1850359 -0.063265935 -0.020867227
000310 68 fd 2c bd df 91 95 3e 7e 7a 31 bd a2 f3 21 3e
       -0.042233855 0.29212853 -0.04332971 0.15815595
000320 16 dd 27 bc ef 9a 40 3e af 6e 86 be 2f f7 28 be
       -0.010245582 0.18809102 -0.2625632 -0.16500543
000330 e6 1b 49 be 34 00 8a 3e 9e c9 32 be 38 59 83 3e
       -0.19639549 0.2695328 -0.17459723 0.25654006
000340 93 f5 01 3e 62 2f 08 3c 33 88 ba bc 3d 86 b1 bd
       0.12691335 0.008312078 -0.022770023 -0.08668182
000350 28 53 97 3c c5 c8 27 bd 24 ca 04 bc d9 1b 46 3d
       0.01847227 -0.040962953 -0.008104835 0.0483664
000360 a7 f8 84 be a2 be 35 be 8c 36 94 3e 07 2f 99 be
       -0.25970957 -0.17748502 0.28947866 -0.29918692
000370 e0 93 08 bd 73 1f b1 3e a2 78 08 3e 4c 1a b8 bc
       -0.03334415 0.34594306 0.13327268 -0.022473477
000380 b0 ba 9d be 88 37 16 3e 92 19 4e be 43 4b cf bd
       -0.30806494 0.14669621 -0.20126942 -0.10121777
000390 78 76 01 be 23 6d ae bd 87 66 8f bc 38 a3 84 3e
       -0.12642848 -0.0851691 -0.017504944 0.25905776
0003a0 8a e0 98 3c 05 d4 93 3e aa 73 2c 3e 9d 46 5f be
       0.018661756 0.28872696 0.16840997 -0.2180428
0003b0 75 4c 19 3e a2 3e 80 be ba 3f 10 be 39 1f f0 3d
       0.14970572 -0.25047785 -0.1408681 0.11724705
0003c0 40 07 04 3e b7 1d 52 3e 0e 6d d2 bd 90 bc ac bc
       0.1289339 0.20519148 -0.10274707 -0.021086007
0003d0 df 04 37 3e 75 04 97 be d2 c1 56 3e 28 fb 8a be
       0.17872952 -0.29495588 0.20972374 -0.27144742
0003e0 43 d3 2b 3d b1 aa a3 bd 96 fe e5 bd a5 d0 1f 3c
       0.04194952 -0.07991541 -0.11230199 0.009754335
0003f0 70 9c 71 3e 87 76 d7 bd eb 40 38 be 8c 54 e4 bd
       0.23594832 -0.10520654 -0.17993514 -0.111489385

model.lstm.weight_hh_l0 f4 [32, 8]
000000 1a 12 66 be 04 ae a3 be 99 d0 9f bb b6 13 55 be
       -0.22467843 -0.319687 -0.0048771617 -0.208083
000010 9f 93 2c be da 75 fe bc ed b3 b2 3b f4 e6 d1 be
       -0.16853188 -0.031062055 0.0054535777 -0.40996516
000020 30 66 31 bd 55 12 aa 3d 7b 7a c5 3e 90 ab c9 3e
       -0.043310344 0.08304278 0.38570008 0.39388704
000030 63 5d 23 be bb d8 9c bd 0c d7 02 be 0a 63 10 bd
       -0.15953593 -0.076585256 -0.12777346 -0.0352507
000040 89 2c 94 be 7f 1e a5 be 6c 51 1a 3f a2 27 13 3f
       -0.28940228 -0.3224983 0.6028049 0.5748235
000050 91 80 5c 3e 55 04 a2 3d 89 87 6c be 35 a4 af be
       0.21533419 0.079109825 -0.23098578 -0.34304968
000060 bd 09 c4 be b8 a1 bf be 9a 2e 27 3e 18 f2 37 3e
       -0.3828868 -0.3742807 0.16326371 0.17963445
000070 7d 65 c6 3e fa 54 4f 3e fd c9 1d 3e be 8b ab bd
       0.38749304 0.2024726 0.15409084 -0.08376263
000080 60 82 00 3e 02 1f b0 be 97 cc 5f 3e cf 6d e8 bc
       0.12549734 -0.34398657 0.21855389 -0.028372673
000090 fe 21 a9 3d 34 96 5c 3e cf 7d 4b 3e 20 e8 26 be
       0.082584366 0.21541673 0.19872211 -0.16299486
0000a0 b9 c6 f6 3d e4 27 c9 bd cd d9 6d 3b 4a 84 dd 3d
       0.12049622 -0.09822062 0.003629315 0.10816248
0000b0 0e 33 25 bd 16 03 1d be 37 7e bb bd dc 8e c9 3e
       -0.040331893 -0.15333208 -0.09154933 0.39366806
0000c0 8f 63 0f 3e 85 ac b2 3e 9a 7d ac 3c 31 14 1a be
       0.14002822 0.34897247 0.021055985 -0.15046765
0000d0 0e 72 be be 01 9c 00 bf da e4 21 3f 43 eb 7d 3e
       -0.37196392 -0.50238043 0.63239825 0.24796776
0000e0 44 ea 0b be c9 fd fb be 3d 24 19 be 6d a7 ae 3d
       -0.13663584 -0.4921706 -0.1495523 0.08528028
0000f0 82 a4 79 3e 2d d9 e0 bd 98 6b 35 be 59 1e a8 be
       0.24379161 -0.10978923 -0.17716825 -0.32835653
000100 52 ad 54 3e 2e 95 ed bd 02 35 32 be 8d 84 58 bd
       0.20769241 -0.116007194 -0.17403033 -0.052860785
000110 d9 8d 3c be 09 dc 26 3c 6a 7f e1 bd 14 07 c6 bd
       -0.18413486 0.010184296 -0.110106304 -0.09669319
000120 2f 71 4c be 64 71 dd be 49 67 52 be c7 3e f3 bd
       -0.19965051 -0.43250573 -0.20547213 -0.11877208
000130 ff a1 96 bc af e8 dc b8 fb 75 31 be 39 d1 14 be
       -0.018387793 -0.00010533758 -0.17330162 -0.14532937
000140 b7 46 0d bf f3 85 5f be a6 ef b0 3e c1 fe 63 3f
       -0.5518603 -0.21828441 0.34557837 0.890606
000150 7f 67 86 3e 97 b2 30 bf 60 1f a5 be 5d 0d 3d bf
       0.26250836 -0.69022506 -0.322505 -0.73848516
000160 d8 ee 16 3c 13 1a c4 be ad 15 ef 3e c9 85 06 3f
       0.009212218 -0.38301143 0.46696225 0.5254789
000170 32 45 59 3e a8 11 81 3d b4 55 d3 3e b5 8e 7a 3c
       0.21217802 0.06302196 0.41276324 0.015292813
000180 da ac f0 be b5 35 98 be df 78 46 be a9 ce e2 3e
       -0.47006875 -0.29728475 -0.19382046 0.44298294
000190 97 af 27 3d 43 42 8b bc 38 fe 31 be 2a a9 a9 be
       0.04093894 -0.01699937 -0.17382133 -0.33136874
0001a0 1f c6 d1 bd 0b 74 2e 3e 83 f0 81 bd 2b 72 28 3e
       -0.10242867 0.17036454 -0.06344702 0.16449802
0001b0 c4 4d d6 3e 61 36 bb 3e 40 2e 9d bb 56 67 60 3e
       0.41856205 0.36564925 -0.004796773 0.2191442
0001c0 c1 65 43 3e 30 a3 04 3f 6f 5e d1 bd 26 74 cb be
       0.19081785 0.51811504 -0.1022309 -0.39737052
0001d0 0f c6 3c be 05 d0 a3 3d f0 10 fc 3d 81 d4 89 be
       -0.18434928 0.07998661 0.12307918 -0.2691994
0001e0 3a 3b 0e 3e 65 b3 1d bf aa 58 ab 3e d4 35 0b 3f
       0.1388978 -0.6160186 0.33466083 0.5437901
0001f0 c8 de 62 3e 56 e6 ce bd c2 95 81 3e ae 00 69 be
       0.22155297 -0.10102527 0.2530957 -0.22754166
000200 ac 43 12 be d9 e3 83 bd 5c f6 3a 3d a7 12 fb 3d
       -0.14283627 -0.06439943 0.045645103 0.12259417
000210 e4 67 e4 bd 7c a6 a4 be 91 c0 c3 be 7d e5 b1 3c
       -0.11152628 -0.32158267 -0.38232854 0.021715874
000220 8d 81 91 3e f1 47 24 be 9a 1d 81 bc 39 da 87 be
       0.28419152 -0.16043068 -0.015761185 -0.26533678
000230 36 cd 36 3e 8e e2 af bd 22 94 d4 bd 04 40 4e be
       0.1785172 -0.08588134 -0.103798166 -0.20141608
000240 22 30 fa be 73 ba 61 be 26 70 58 3e 67 c9 d3 3e
       -0.48864847 -0.22043781 0.21136531 0.41364595
000250 85 62 08 be 50 d1 52 3d 48 38 62 bc 01 1a e2 3c
       -0.13318832 0.051469147 -0.013807364 0.02760029
000260 e5 87 62 be aa 9a 24 3d bd f5 64 3e f0 c9 6f 3e
       -0.22122152 0.04018656 0.22359367 0.23416877
000270 3f 21 1b bd 2b 7e 25 3e fe ce fe bb 1a 35 64 3c
       -0.037873503 0.1616141 -0.0077761402 0.013928676
000280 a3 5e 96 be f7 78 bd be 80 9d 6c be a1 10 26 be
       -0.29369077 -0.3700635 -0.23106956 -0.16217281
000290 76 3e a9 bd d2 94 b8 3d 80 da 04 bd f7 93 86 be
       -0.082638666 0.0901276 -0.03243494 -0.26284763
0002a0 e2 cc 8a 3c 24 7a 9f bd 03 6f 85 3e 3b fe a5 be
       0.016943399 -0.07786968 0.26061258 -0.32420525
0002b0 13 d8 15 be 09 35 c3 bd 58 c8 0a 3e c4 d4 ed 3c
       -0.14633207 -0.095316 0.13552988 0.029032119
0002c0 8a ad eb 3d 08 b4 ea 3e 15 53 6f be 29 c4 4a be
       0.11507709 0.45840478 -0.23371537 -0.19801392
0002d0 9d 5e f0 bc 0f 56 0a 3f 74 f6 9e bc 93 10 70 3e
       -0.02934199 0.54037565 -0.019404627 0.23443823
0002e0 49 17 25 bd 55 4f 69 3e ce 7d 18 3e b7 7f 9d bd
       -0.04030541 0.22784169 0.1489174 -0.07690375
0002f0 5c e4 eb 3d 16 e3 88 3e e4 32 6b be e2 e1 00 3b
       0.115181655 0.26735753 -0.22968632 0.0019665887
000300 27 de 75 bf cd bf 16 bf b3 3d 63 3f d6 0f 14 3f
       -0.960421 -0.58886415 0.8876602 0.57836664
000310 79 dd 31 3f 28 9a cc be 68 99 27 bf 63 bd b1 be
       0.69478565 -0.39961362 -0.65468454 -0.34714803
000320 8c c1 33 bf b1 e1 8a bf b7 15 e6 3e 69 6b d2 3e
       -0.70217204 -1.0850126 0.44938442 0.41097572
000330 c1 6d 40 3f fe ef e2 be 44 5f 5d bf f5 94 db be
       0.7516747 -0.44323725 -0.8647349 -0.42887083
000340 fd 4c 9c be 7b 93 83 be a8 1d d3 3e 01 2a d2 3e
       -0.30527487 -0.25698456 0.41233563 0.4104767
000350 12 3b e1 3d ca 00 b6 3e 92 61 f7 bd 25 80 87 3c
       0.10997595 0.35547477 -0.12079157 0.016540596
000360 55 04 ee be 9a e5 6d bf ef b0 b7 3e e0 0f 4e 3f
       -0.4648768 -0.9292847 0.35877177 0.80492973
000370 b5 61 0e 3f 1f a3 3c bf 37 02 27 bf 2e 14 70 bf
       0.5561784 -0.73686403 -0.65237755 -0.9378079
000380 62 c5 a9 be 43 4b 38 bf 96 c9 10 3f 9a fc 78 3f
       -0.33158404 -0.7198984 0.56557596 0.9726044
000390 16 48 49 3f 81 5c f1 be a5 ba 57 bf 76 91 ad be
       0.7862562 -0.47140887 -0.8426917 -0.3390004
0003a0 83 a1 2c 3d 78 d6 dd 3e f8 86 36 be 49 52 94 3d
       0.042146217 0.4332769 -0.17824924 0.07242257
0003b0 2d 32 c2 3d bf 71 34 bf f7 bc ac be 41 4a 2e be
       0.094822265 -0.7048606 -0.3373792 -0.17020513
0003c0 4d 76 15 3e 7b 56 06 3e fd 3d 98 3c 1d 71 7e 3c
       0.1459591 0.13118927 0.018584246 0.015529898
0003d0 df 3a 51 3e 2c 55 97 bd a3 ae be be 49 ea 48 be
       0.20432614 -0.07389292 -0.37242612 -0.19620623
0003e0 5d 25 71 bf 32 17 ef be 48 31 03 3f 66 4c d4 3e
       -0.94197637 -0.46697384 0.5124707 0.41464537
0003f0 4a d6 1c 3f 36 cf 0e bf f2 87 10 bf c5 9d 1a bf
       0.6126448 -0.5578493 -0.56457436 -0.6039699

model.lstm.bias_ih_l0 f4 [32]
000000 f3 27 23 bd 7d 02 2e 3d 46 e3 bd 3e 72 74 3c bd
       -0.03983302 0.04248284 0.37087458 -0.04600949
000010 3f 8c f1 bd e0 ba 7e 3d bf 2c d2 be d5 6a 32 be
       -0.11794328 0.062189937 -0.41049764 -0.17423566
000020 48 32 aa bd ab 7e 96 bd 71 60 a5 3e b7 76 cb bc
       -0.08310372 -0.07348379 0.3230014 -0.024836881
000030 0e 01 8b 3d fe 14 70 3e cc ee a7 be ee 67 ec 3d
       0.067873105 0.23445508 -0.32799375 0.115432605
000040 fa 87 60 be 80 20 a2 be 9a 84 31 3d 23 54 ac bc
       -0.21926871 -0.3166542 0.04333935 -0.021036213
000050 5f 88 00 3e ca 55 fc be e6 88 0b bf f6 a7 58 3e
       0.12552021 -0.49284202 -0.54505765 0.21157822
000060 40 54 60 3f bb 99 07 3f ef 96 33 3e be ff 9c 3e
       0.87628555 0.5296895 0.17538045 0.30663866
000070 b4 8a 78 3f 0d d8 d7 be 77 12 df be 8f c9 af 3e
       0.97086644 -0.4215702 -0.43568775 0.34333465

model.lstm.bias_hh_l0 f4 [32]
000000 de 44 27 be dc 7a 67 3e 1a 84 de 3e 1e dc 56 3e
       -0.16334864 0.22605461 0.4346016 0.20982406
000010 b9 c2 21 3e e8 a0 91 bc 20 ee de be c1 fe 32 bd
       0.15796937 -0.017776921 -0.4354105 -0.043699984
000020 fa d0 30 be 08 6d a2 3e db 20 96 3e 51 48 f9 3d
       -0.17267218 0.3172381 0.29321942 0.121719964
000030 30 10 9a 3e 9d 6b a5 3c 47 25 06 be ea 44 b8 bd
       0.30090475 0.020192916 -0.13100158 -0.08997519
000040 eb 0c d7 be 76 6e 0a 3d 28 59 2c 3d d9 c6 b3 3e
       -0.42002043 0.03379675 0.042077214 0.35112646
000050 da b8 0c 3e d5 ca 73 be 36 69 6e bf 58 80 d7 bd
       0.1374239 -0.23807843 -0.9312929 -0.105225265
000060 74 e0 00 3f 1d 11 f9 3e 7f a6 7c bc f6 c7 28 3f
       0.5034249 0.4864587 -0.015420555 0.65930116
000070 e2 47 d0 3e 24 10 2b bc 8c 4b 01 3e 90 04 3b 3f
       0.40679842 -0.01044086 0.12626475 0.73053837

model.linear.weight f4 [1, 8]
000000 96 28 8b 3f 7d f2 76 3f 2a 07 84 bf f7 4a 6a bf
       1.0871761 0.9646376 -1.0314686 -0.9152064
000010 29 30 5d bf 6b 0b 88 3d d9 e4 59 3f 17 86 86 3f
       -0.8640161 0.06642803 0.8511482 1.0509671
