final_models/1D_final_bce_seq2seq.pth (torch, 2378 bytes, 5 tensors)

model.lstm.weight_ih_l0 f4 [16, 1]
00000000: e877 de3e 7f22 243f 9d4d f0be 7ba2 c53c
00000010: 5b58 61bd b4ff f93e 56fd 26bf ac15 273f
00000020: dff6 273c 435c 40be 0dd0 b3be 26c2 d2bd
00000030: fd61 0fbe 724a d6be 0f79 613e 1259 af3e
0.43450856 0.64115137 -0.46934214 0.024125328 -0.055015903 0.48827899 -0.6523031 0.65267444
0.01025173 -0.18785195 -0.35119668 -0.10290937 -0.14002223 -0.41853672 0.22018836 0.34247643

model.lstm.weight_hh_l0 f4 [16, 4]
00000000: 2e8c aa3d 79e1 2cbe 9b9b 65bf 7931 18bf
00000010: 3f59 903d 579d 07bd faa9 24bf 7fad 9c3d
00000020: 92b5 2f3e 5c91 97be a93f a43c 6ac9 3e3c
00000030: 614a 0cbf 82f7 d4be 9c10 0ebf e7e3 c1bc
00000040: 69fa 19bf d9a5 0bbf 5ec2 3bbf 8e3f 32bf
00000050: 0277 c0be a04b 95bd 2390 c7be bcb1 93bd
00000060: dc36 f63e 2b9b 42bf cf0a 09bf dbb0 5fbd
00000070: 3ffe 30bf fb20 15bf f208 babd d615 2cbd
00000080: 75ae 023e 072d 713d 6d27 ae3e a87d 7d3f
00000090: 0308 9e3e 3f6d cd3e cf63 403f 9256 3cbd
000000a0: a3f3 f7bb 56d8 613e 3819 ae3e d791 f9bd
000000b0: a3fb de3e 80a4 c13e b813 00be c601 df3e
000000c0: 6005 e5bd 8d08 17bf 7441 20bf 57aa b3bd
000000d0: 16b6 043f 2f5e 73be 1d43 9cbf 77a9 0cbe
000000e0: 6bc2 183f 6590 07bf 38a0 13bf 37c9 8f3e
000000f0: 7201 cfbe cd79 dbbe 6ad9 0b3e 2e28 6abf
0.083275184 -0.16882886 -0.8969056 -0.5945049 0.07048272 -0.033109035 -0.64321864 0.07650279
0.17159107 -0.29603088 0.020049887 0.011644701 -0.54800993 -0.41595083 -0.55494094 -0.023668243
-0.6014772 -0.5454994 -0.73343456 -0.69628227 -0.37590796 -0.07289815 -0.38977155 -0.072116345
0.4808873 -0.7601802 -0.5353212 -0.054612022 -0.6913795 -0.5825345 -0.090837374 -0.042013012
0.12761863 0.058880832 0.34014454 0.9901986 0.30865487 0.4012241 0.75152296 -0.045980997
-0.0075668856 0.22055182 0.34003615 -0.1218602 0.4355136 0.37820816 -0.12507522 0.4355604
-0.11182666 -0.5899742 -0.62599874 -0.08772724 0.5184034 -0.23766397 -1.2207981 -0.1373652
0.5967166 -0.52954704 -0.5766635 0.28083202 -0.4043079 -0.42866364 0.13657156 -0.9146756

model.lstm.bias_ih_l0 f4 [16]
00000000: 1924 8e3c 62e7 6b3f 502a 3b3f 61fe 92be
00000010: 101b c43e e0ce a83e 3ba3 bf3e 9e47 ce3c
00000020: ea2c 1c3f 2492 2dbf ce21 cdbe 5984 ad3e
00000030: 9321 403f 38c7 3c3f 207d a53e eb60 07bf
0.017351197 0.9214994 0.7311144 -0.287097 0.38301897 0.32970333 0.37429222 0.025180634
0.61006033 -0.6780112 -0.40064853 0.33890036 0.7505123 0.73741484 0.32322025 -0.5288226

model.lstm.bias_hh_l0 f4 [16]
00000000: eda4 3b3f a4f7 143f 072f 20bd fe24 9cbd
00000010: ba82 423f 3537 403f 2149 743e 4c4b 033e
00000020: 7caf 6fbd e71c c8be 9be1 75bf 6569 99be
00000030: dee4 ba3e d722 203f c402 1d3f c2da bc3d
0.7329853 0.5819037 -0.03910735 -0.07624243 0.7598072 0.7508424 0.23856021 0.12821692
-0.058516964 -0.3908455 -0.9604737 -0.29963222 0.36502737 0.6255316 0.61332345 0.09221412

model.linear.weight f4 [1, 4]
00000000: a6c1 42bf 41e6 b13f 9aba af3f e0a4 9ebf
-0.76076734 1.3898393 1.3728821 -1.2394066
