final_models/1D_final_comb.pth (torch, 2378 bytes, 5 tensors)

model.lstm.weight_ih_l0 f4 [16, 1]
00000000: c5b1 0f3f e28e 09be 5b5c 1f3f cf8e f33d
00000010: 116d b03e a5bd a1be e8ec 023f 059b a9bd
00000020: 3b7a 803e 05e8 c3be 0345 083e 9612 a93e
00000030: 115c 413f 148e 273f 935c b33e ae36 9c3e
0.5613063 -0.13433412 0.622503 0.11892473 0.3445821 -0.3159 0.5114274 -0.08281521
0.25093254 -0.38262954 0.13307576 0.33021992 0.7553111 0.6545117 0.35031566 0.30510467

model.lstm.weight_hh_l0 f4 [16, 4]
00000000: 191a 603b 41bd b4be 846a 59bf 833e 4d3d
00000010: 9cfb 4b3e 11d0 70bf 5285 58bc 3b5c 8dbe
00000020: 42f0 89be df9b f4be 324f 14be 5179 fcbd
00000030: fc14 0f3f c95e 09bf 4b0b c9be cedf 23be
00000040: dbd0 14bd 154e b8be caae 8fbd c166 93be
00000050: e51c 5cbe 6d7f 91be 92a8 d8be 8e8b 0bbf
00000060: 8320 e3be 0c56 82bb a358 7abe 214d 09bf
00000070: 1422 e33a 7f9d 1bbf 4a37 6b3d 8406 43be
00000080: 3371 83bd 900f 98bd eddd 243e baed 373f
00000090: 8ddb d5be a788 533f d79e 063f 9357 093f
000000a0: f909 753e 898a c73e 7b4e d33e d61d ed3d
000000b0: 5e32 bf3e 67f1 343f 8255 e3be a368 01bd
000000c0: 208a babd 7318 013e bd90 d6be 4338 a63d
000000d0: 83d8 af3e 863e 60bf f85e b33d 67d6 85bf
000000e0: 9370 36be 7187 5ebf 7056 18bf 31a9 fbbe
000000f0: 8560 c2be 2ba0 e1be ac37 9bbe 543e 9cbe
0.0034195243 -0.3530064 -0.84928155 0.050108444 0.199202 -0.94067484 -0.01321538 -0.2760943
-0.26941115 -0.4777517 -0.14483336 -0.12327827 0.55891395 -0.53660256 -0.39266428 -0.16003343
-0.036331993 -0.35997072 -0.0701576 -0.28789333 -0.21495397 -0.2841753 -0.4231611 -0.5450982
-0.44360742 -0.0039775427 -0.24447875 -0.53633314 0.0017328882 -0.60787195 0.057425775 -0.19045454
-0.064180754 -0.07424843 0.16100283 0.71847117 -0.41769066 0.8263039 0.5258612 0.5364925
0.23929586 0.3897288 0.41270813 0.115779564 0.37343115 0.7068085 -0.44401175 -0.03159393
-0.091083765 0.12606983 -0.41907302 0.081162 0.34344873 -0.87595403 0.08758348 -1.0456055
-0.17816381 -0.8692542 -0.59506893 -0.4915252 -0.37964264 -0.4406751 -0.30315912 -0.30516303

model.lstm.bias_ih_l0 f4 [16]
00000000: 71b2 80be 07ec e03e fc12 053d ced0 b03e
00000010: 0812 21bb d355 a63e f713 6abe e70a d93d
00000020: eb77 86be 763b b5bd a1f9 b6be 79f7 dabe
00000030: 38e6 2a3f f423 1d3f d980 0c3f 7662 003f
-0.2513614 0.43930075 0.032488808 0.34534305 -0.0024577398 0.32487354 -0.22859178 0.105977826
-0.26263365 -0.08849232 -0.35737327 -0.42766932 0.66757536 0.61382985 0.54884106 0.5015024

model.lstm.bias_hh_l0 f4 [16]
00000000: 78b3 c5bd 260e 723d c0b9 6c3d 155f 153f
00000010: d746 59be 3fbe 3a3f 3c31 95be e4a3 583e
00000020: 74d0 0bbf 01fb 19bf 0dd0 28bf 2f5b 63bf
00000030: fa09 7c3e 09ba 263f 61ec d13e c093 de3e
-0.096533716 0.059095524 0.057794333 0.5834821 -0.2121843 0.7294654 -0.29139125 0.2115627
-0.5461495 -0.60148627 -0.6594246 -0.8881101 0.24613181 0.6512762 0.41000655 0.434721

model.linear.weight f4 [1, 4]
00000000: 9643 253f 4a6e 273f 9833 773f 94a0 8d3f
0.6455625 0.6540266 0.965631 1.106463
