final_models/HAR_final_bce_seq2seq.pth (torch, 6794 bytes, 5 tensors)

model.lstm.weight_ih_l0 f4 [32, 28]
0.37144303 0.14908886 -0.0086015 0.4401572 0.29459974 0.24620833 0.5154479 -0.174637
0.6742225 -0.2820142 0.026820008 -0.56684655 -0.31985107 -0.08277532 -0.4846951 -0.580812
-0.56052405 -0.39235324 -0.3330875 -0.20691855 -0.045097202 -0.13151014 -0.2106064 0.19238716
-0.013368895 -0.08945878 0.10117145 -0.051384214 0.5883245 -0.15070702 -0.48965713 0.4052153
0.044401634 -0.23606761 0.14357607 0.2594942 -0.1839905 -0.2766774 -0.15980814 0.023158032
-0.09111844 -0.30737662 -0.47297817 -0.77871746 -0.25513446 0.3151306 -0.5129495 -0.17814396
-0.022829385 -0.23033573 0.0046098027 -0.13718376 0.34797874 0.26684794 -0.050571475 -0.12862687
0.18152902 0.14832078 -0.15301532 0.2922202 -0.05818147 0.4542078 0.45675084 0.22721797
0.18371364 -0.15709221 0.21952657 -0.37391135 -0.3477006 -0.1780381 -0.54012084 -0.08623754
-0.036134463 -0.52300775 0.08190626 -0.36923814 -0.53740335 -0.36976036 -0.31620297 0.005129469
0.015051851 -0.19445646 -0.0698059 -0.056658395 0.39565116 0.60833913 -0.20374802 0.21857965
-0.04455651 -0.08459668 0.6292135 0.8159604 0.29536048 -0.20699315 0.04504521 -0.77366066
-0.4290877 0.21433097 -0.41780907 -0.14693165 -0.41350722 -0.13047537 -0.13665193 -0.20825268
-0.3117116 0.06693259 -0.21756281 -0.22202414 -0.4629561 0.061064065 0.19140087 -0.43869755
0.39117518 -0.583951 -0.15137044 0.3684198 0.13862029 0.17365211 0.047807187 0.45015866
0.6842492 -0.4459685 0.068346 -0.051074885 -0.029951785 0.025316864 -0.3663193 0.5639574
0.46564028 -0.26969892 0.43672526 -0.228484 0.02660434 0.55885845 0.35878712 0.49171126
-0.0050070765 0.52730215 0.7896942 0.051291563 0.32245412 0.40757394 -0.47381556 0.74169284
-0.036525108 -0.11645473 0.18789233 0.27521876 0.109843366 0.26896665 -0.074131005 -0.42923418
-0.08246106 -0.017717898 -0.19564669 -0.52440524 -0.6371706 -0.3515734 -0.40917566 -0.20818219
0.019684926 -0.1438756 -0.3619432 0.14913298 -0.078938946 -0.025821876 0.006886272 0.20627978
0.04975348 0.20014755 -0.37576127 0.5561541 -0.53888416 0.076535046 0.46964607 0.22481179
-0.06369744 -0.16685554 0.17292534 -0.26185042 -0.9897858 -0.3042766 -0.7627678 -0.07448801
-0.09031425 -0.6649529 -0.2739726 -0.53635854 -0.6339434 -0.056580726 -0.16810074 -0.91122633
-0.46033445 -0.6747497 -0.21474741 -0.65350336 -0.07546278 0.3353202 0.037744462 0.084122196
0.5803555 0.49498507 -0.2087896 0.30037385 0.6662681 -0.002633765 0.046715453 -0.4961062
-0.14954333 0.39835778 -0.36706397 0.2004935 0.45412368 -0.48645234 0.1424459 -0.56695384
-0.49270785 -0.26972702 -0.41951758 -0.34001678 -0.2403468 -0.3288341 -0.12603131 0.023308137
-0.3301283 0.4916257 0.66869867 -0.16681719 -0.3200986 0.15392907 -0.609905 -0.60056
-0.6434231 -0.070831075 -0.21768342 -0.02100115 0.010071463 -0.19976802 0.5113863 -0.60653424
-1.0576023 0.17283867 -0.68197393 0.25642356 -0.11699397 -0.6805745 -0.3480721 -0.09573582
-0.443309 -0.76661307 -0.4660532 0.23854505 0.50010675 -0.29030305 0.06367277 0.40003893
00000000: c82d be3e c0aa 183e 4eed 0cbc 495c e13e
00000010: c7d5 963e 091e 7c3e 65f4 033f 0bd4 32be
00000020: d999 2c3f 2a64 90be a2b5 db3c db1c 11bf
00000030: 85c3 a3be 1b86 a9bd f529 f8be 18b0 14bf
00000040: 817e 0fbf 86e2 c8be 728a aabe 75e2 53be
00000050: d8b7 38bd 98aa 06be 34a9 57be 2401 453e
00000060: 3609 5bbc 2a36 b7bd fa32 cf3d 4178 52bd
00000070: 6f9c 163f f152 1abe 57b4 fabe 6178 cf3e
00000080: 7dde 353d b5bb 71be 9b05 133e 6cdc 843e
00000090: 0168 3cbe a9a8 8dbe bfa4 23be eab5 bd3c
000000a0: 4e9c babd 7860 9dbe 322a f2be 075a 47bf
000000b0: fca0 82be cc58 a13e a950 03bf 5f6b 36be
000000c0: b104 bbbc 21dd 6bbe d40d 973b e679 0cbe
000000d0: 452a b23e 4ba0 883e 0924 4fbd c3b6 03be
000000e0: bee2 393e 67e1 173e 0cb0 1cbe e39d 953e
000000f0: b14f 6ebd ed8d e83e 3fdb e93e d4ab 683e
00000100: 6e1f 3c3e c8dc 20be 93cb 603e 4f71 bfbe
00000110: d005 b2be 9f4f 36be 5c45 0abf 4f9d b0bd
00000120: bb01 14bd d6e3 05bf 78be a73d c80c bdbe
00000130: 4493 09bf 3b51 bdbe 5be5 a1be 1b15 a83b
00000140: 0a9c 763c 981f 47be 65f6 8ebd a212 68bd
00000150: ca92 ca3e 1dbc 1b3f 52a3 50be 58d3 5f3e
00000160: e380 36bd 0641 adbd 2314 213f c8e2 503f
00000170: 7d39 973e 03f6 53be 5381 383d a00e 46bf
00000180: 62b1 dbbe 9479 5b3e 12eb d5be 4075 16be
00000190: 38b7 d3be 569b 05be 7cee 0bbe 3140 55be
000001a0: aa98 9fbe f413 893d c9c8 5ebe 4c5a 63be
000001b0: 9508 edbe 501e 7a3d 97fe 433e f79c e0be
000001c0: 1d48 c83e d07d 15bf da00 1bbe 85a1 bc3e
000001d0: 7af2 0d3e dcd1 313e 78d1 433d 327b e63e
000001e0: f52a 2f3f fc55 e4be fdf8 8b3d e633 51bd
000001f0: 725d f5bc 5065 cf3c 348e bbbe 835f 103f
00000200: 6768 ee3e fa15 8abe 749a df3e b6f7 69be
00000210: 58f1 d93c 5911 0f3f f2b2 b73e 94c1 fb3e
00000220: 6712 a4bb 46fd 063f 6629 4a3f 1a17 523d
00000230: b518 a53e 88ad d03e f497 f2be 95df 3d3f
00000240: 5a9b 15bd d17f eebd d966 403e 79e9 8c3e
00000250: 8ff5 e03d ffb5 893e ffd1 97bd 95c4 dbbe
00000260: 58e1 a8bd 2025 91bc 9b57 48be 6c3f 06bf
00000270: 9d1d 23bf 6e01 b4be 797f d1be b62d 55be
00000280: 4842 a13c 2054 13be 9e50 b9be 51b6 183e
00000290: beaa a1bd 6688 d3bc 3da6 e13b 023b 533e
000002a0: 4eca 4b3d 7bf3 4c3e c863 c0be 1d60 0e3f
000002b0: 50f4 09bf 68be 9c3d 7375 f03e 1035 663e
000002c0: ce73 82bd 2edc 2abe 5713 313e 4211 86be
000002d0: 9a62 7dbf 24ca 9bbe c044 43bf 2b8d 98bd
000002e0: adf6 b8bd 5a3a 2abf 2346 8cbe cb4e 09bf
000002f0: 1d4a 22bf 31c1 67bd 9a22 2cbe 2146 69bf
00000300: f5b0 ebbe 65bc 2cbf bfe6 5bbe ff4b 27bf
00000310: 3b8c 9abd 17af ab3e f099 1a3d 4248 ac3d
00000320: 2e92 143f af6e fd3e f1cc 55be 9aca 993e
00000330: 8c90 2a3f 3f9b 2cbb b458 3f3d a201 febe
00000340: e321 19be 8df5 cb3e cfef bbbe 2b4e 4d3e
00000350: e682 e83e 4810 f9be 57dd 113e e323 11bf
00000360: 3444 fcbe a919 8abe 02cb d6be ae16 aebe
00000370: 791d 76be f15c a8be 5a0e 01be b5f0 be3c
00000380: 9406 a9be 5db6 fb3e d62f 2b3f 20d2 2abe
00000390: f7e3 a3be 959f 1d3e bc22 1cbf 4dbe 19bf
000003a0: 60b7 24bf e20f 91bd 67e8 5ebe 9b0a acbc
000003b0: c702 253c fd8f 4cbe 36ea 023f d445 1bbf
000003c0: 835f 87bf 9ffc 303e d895 2ebf f349 833e
000003d0: 899a efbd 213a 2ebf 8236 b2be 2411 c4bd
000003e0: 66f9 e2be c140 44bf 869e eebe 2745 743e
000003f0: ff06 003f 9aa2 94be df66 823d e7d1 cc3e

model.lstm.weight_hh_l0 f4 [32, 8]
0.14051169 0.06460234 0.03226029 -0.43532118 0.54014057 -0.4251149 -0.11463084 0.75032127
-0.07669158 0.029993797 -0.19480519 -0.023118202 0.22683811 -0.32527846 0.37302884 0.7841736
-0.42014337 -0.655435 -0.23783103 -0.27053973 0.53459424 -0.75725335 0.37616026 0.39667723
-0.8664936 -0.31472924 -0.73450345 0.5199969 0.19211204 -0.5901852 0.49981278 0.14550397
-0.5803724 -0.6232823 -0.8596933 -0.13716926 -0.1360389 -0.4744144 0.4193278 0.21806183
-0.4951619 0.27079463 0.08950139 0.18301089 0.17688729 -0.07249097 -0.15951927 0.062195133
-0.39884943 -0.64743245 -0.486762 -0.1054428 0.5442552 -0.040230997 0.626533 0.25662017
-0.5940993 -0.72213393 -0.5912054 0.026009565 0.031779222 -0.9976287 0.55709743 -0.2276052
0.73664296 0.19713141 0.45372176 -0.10637958 0.26083323 0.5110548 -0.9540164 0.17909321
0.0733917 -0.4330831 0.176033 -0.1920417 0.55627257 -0.371729 0.07287653 0.10153265
0.46101594 0.4333015 0.6899287 -0.34553063 0.06472967 0.35013014 -0.9349104 0.8155144
0.4104384 -0.18473305 0.4474323 -0.86955845 0.09529008 0.1753451 -0.30142367 0.5862586
0.26270962 -0.322107 0.19757622 -0.52241546 0.46287456 -0.006790256 -0.05779027 0.72788125
-0.16089286 -0.14427736 0.074426726 0.1419209 0.24135582 -0.38845384 -0.13299184 0.36290157
1.1035056 0.76819056 0.89878124 -0.42446846 -0.028120544 0.5869367 -0.62064695 0.42676607
0.50428736 -0.13898419 0.7098006 -0.5719167 0.21826203 -0.14185253 -0.53433114 0.46143547
-0.663562 -1.018896 -0.49347618 -0.10911142 0.3782566 -1.1548768 0.37180284 -0.19965412
-0.04839573 0.8054888 -0.07216355 0.6386641 -0.36477828 0.8776199 0.18175118 0.025269179
-0.97995013 -0.940443 -0.49689877 -0.4075447 0.36413765 -1.252822 0.17578219 0.5294344
0.55539805 0.39791816 0.05507316 0.394648 -0.98189247 0.76575196 0.2727431 0.09086184
-0.4009888 -0.5017865 -0.106669486 -0.037629806 0.41349062 -0.683203 0.06425557 0.037451953
-0.049526062 0.37000263 0.08926017 0.40622342 -0.18194184 0.17295519 -0.091028474 -0.30668828
0.2103025 1.2415893 0.14446218 -0.021870311 -0.70008826 1.2509224 0.084440894 -0.62794286
-0.4194469 -0.4613495 -0.00038255964 -0.1910901 0.85594726 -0.52572566 -0.042476997 0.23777662
0.5844296 -0.8241079 0.17260815 -0.92627627 0.37000227 -0.86955893 -0.3984628 0.9043252
-0.47064188 -0.095923826 -0.21716572 0.17353787 0.20519939 -0.37306988 -0.28139058 0.6874459
0.2453509 -0.57172805 0.3312362 -0.3449442 0.7470764 -0.9506043 -0.019813763 0.7711133
0.30742592 -0.79275477 0.34642273 -0.12727396 0.5339902 -0.3014295 -0.11477947 0.27450597
-0.27114987 -1.0199149 0.14474262 -0.42402518 0.8197315 -0.34331715 -0.07410455 0.5739624
0.18812197 -0.1181535 0.35137424 -0.35902485 0.14957505 -0.15638345 0.06071631 0.1925786
0.50864214 -0.49241167 0.5275896 -0.2383012 0.50990576 -0.62115544 0.06336559 0.61620927
0.2750892 -0.96810836 0.27741036 -0.12661079 0.50723803 -0.8588095 -0.2872368 0.40475985
00000000: 4ce2 0f3e 3b4e 843d 5e23 043d 6be2 debe
00000010: a746 0a3f a9a8 d9be 93c3 eabd 0e15 403f
00000020: 7a10 9dbd 8db5 f53c 037b 47be 6262 bdbc
00000030: 4048 683e e68a a6be a3fd be3e 9abf 483f
00000040: 081d d7be 97ca 27bf fa89 73be 2f84 8abe
00000050: 2bdb 083f 5bdb 41bf 1498 c03e 4719 cb3e
00000060: 86d2 5dbf 3124 a1be 6b08 3cbf 841e 053f
00000070: 05b9 443e 6116 17bf 76e7 ff3e fefe 143e
00000080: 4993 14bf 6e8f 1fbf dc14 5cbf 1976 0cbe
00000090: c84d 0bbe 72e6 f2be 22b2 d63e 9a4b 5f3e
000000a0: dc85 fdbe 98a5 8a3e 814c b73d 3567 3b3e
000000b0: f121 353e 2576 94bd 0559 23be 53c0 7e3d
000000c0: fe35 ccbe 22be 25bf de38 f9be 65f2 d7bd
000000d0: 4f54 0b3f 42c9 24bd 7764 203f b863 833e
000000e0: e416 18bf c5dd 38bf 3d59 17bf 0312 d53c
000000f0: ee2a 023d 9864 7fbf f09d 0e3f 5611 69be
00000100: a294 3c3f d1dc 493e 384e e83e 8add d9bd
00000110: ef8b 853e 7dd4 023f 6b3a 74bf 3664 373e
00000120: 634e 963d 11bd ddbe ff41 343e 94a6 44be
00000130: e167 0e3f 4353 bebe 4a40 953d 5af0 cf3d
00000140: 480a ec3e b2d9 dd3e 2b9f 303f 64e9 b0be
00000150: fd90 843d 4244 b33e 4a56 6fbf 8dc5 503f
00000160: fb24 d23e a92a 3dbe d915 e53e 629b 5ebf
00000170: 7227 c33d aa8d 333e 3454 9abe 0b15 163f
00000180: e081 863e 35eb a4be 6c51 4a3e 05bd 05bf
00000190: e5fd ec3e cc80 debb 7db5 6cbd 6d56 3a3f
000001a0: 19c1 24be 72bd 13be 0a6d 983d b653 113e
000001b0: fb25 773e 6ce3 c6be 032f 08be 3cce b93e
000001c0: ac3f 8d3f 23a8 443f 8716 663f ee53 d9be
000001d0: 0e5d e6bc 7c41 163f b8e2 1ebf 1581 da3e
000001e0: fa18 013f df51 0ebe 7eb5 353f 2269 12bf
000001f0: 1580 5f3e ca41 11be edc9 08bf 4541 ec3e
00000200: 33df 29bf 2f6b 82bf e9a8 fcbe cf75 dfbd
00000210: d9aa c13e 01d3 93bf f15c be3e 2172 4cbe
00000220: 9a3a 46bd 8434 4e3f 7cca 93bd 7e7f 233f
00000230: 38c4 babe b3ab 603f fb1c 3a3e 4f01 cf3c
00000240: 03de 7abf dfc0 70bf 8469 febe b3a9 d0be
00000250: 4070 ba3e 795c a0bf 3f00 343e 0389 073f
00000260: 912e 0e3f eebb cb3e 6594 613d 4d0f ca3e
00000270: 4e5d 7bbf 5208 443f fca4 8b3e c615 ba3d
00000280: 674e cdbe 1475 00bf 8875 dabd b621 1abd
00000290: 0bb5 d33e 64e6 2ebf 6d98 833d 3867 193d
000002a0: d7db 4abd fc70 bd3e 09ce b63d 84fc cf3e
000002b0: f64e 3abe 2a1b 313e 236d babd 3f06 9dbe
000002c0: 8a59 573e 66ec 9e3f e5ed 133e 5e29 b3bc
000002d0: fc38 33bf 3a1e a03f 59ef ac3d ddc0 20bf
000002e0: bec1 d6be 0036 ecbe 4992 c8b9 20ad 43be
000002f0: 5c1f 5b3f f595 06bf 5cfc 2dbd b77b 733e
00000300: 2e9d 153f bcf8 52bf 31c0 303e 7120 6dbf
00000310: f070 bd3e 6a9b 5ebf 5103 ccbe db81 673f
00000320: f9f7 f0be b673 c4bd b160 5ebe e9b3 313e
00000330: ca1f 523e 0403 bfbe 6d12 90be 74fc 2f3f
00000340: 443d 7b3e c55c 12bf cb97 a93e 879c b0be
00000350: 6640 3f3f ce5a 73bf 7950 a2bc ae67 453f
00000360: ee66 9d3e faf1 4abf 525e b13e 1b54 02be
00000370: 95b3 083f f854 9abe 8011 ebbd 0c8c 8c3e
00000380: 28d4 8abe 928c 82bf 6937 143e d419 d9be
00000390: ecd9 513f 44c7 afbe 20c4 97bd 33ef 123f
000003a0: 0ca3 403e 76fa f1bd 53e7 b33e 1bd2 b7be
000003b0: 342a 193e fc22 20be aab1 783d 5333 453e
000003c0: 5f36 023f 621d fcbe 1d10 073f 3b05 74be
000003d0: 2f89 023f 0b04 1fbf d2c5 813d e4bf 1d3f
000003e0: 7ed8 8c3e f3d5 77bf bb08 8e3e 42a6 01be
000003f0: 5ada 013f f0da 5bbf b410 93be af3c cf3e

model.lstm.bias_ih_l0 f4 [32]
0.4383162 0.21355185 0.47918162 0.24372949 0.5003257 -0.0437082 0.7868055 -0.06506863
-0.45993292 0.4621779 -0.22025342 -0.36184546 0.35533196 0.54989374 -0.39783254 0.04621926
-0.008757024 0.3491845 0.09500657 0.3705384 0.08767163 0.30510724 -0.0008677415 0.22462666
0.24936306 0.7096378 0.2596735 0.40451187 0.16636676 0.6936482 0.4105799 0.33173698
00000000: fb6a e03e 56ad 5a3e 4b57 f53e 3994 793e
00000010: 5815 003f 5f07 33bd 166c 493f b442 85bd
00000020: 547c ebbe 95a2 ec3e 1d8a 61be cf43 b9be
00000030: 12ee b53e d6c5 0c3f b5b0 cbbe 6850 3d3d
00000040: 9f79 0fbc 50c8 b23e ce92 c23d 36b7 bd3e
00000050: 2f8d b33d 0437 9c3e 2579 63ba 8804 663e
00000060: 0859 7f3e d3aa 353f edf3 843e 2e1c cf3e
00000070: 0c5c 2a3e ee92 313f 8737 d23e 6ed9 a93e

model.lstm.bias_hh_l0 f4 [32]
0.107779875 -0.24424781 0.47009644 0.46632147 -0.035737716 0.6340448 0.79079103 0.10742329
-0.63583714 0.4357646 -0.07533529 -0.17708834 0.5153991 0.23702914 -0.097770564 -0.29994932
-0.25932425 0.4691253 -0.18618737 -0.05837914 -0.38372305 0.2821527 -0.090213574 0.21429749
0.43593964 0.36098856 0.32457244 0.53413516 0.46229085 0.70297927 0.3258263 0.07740954
00000000: b2bb dc3d 191c 7abe 7bb0 f03e b0c1 ee3e
00000010: b661 12bd c350 223f 4871 4a3f be00 dc3d
00000020: 39c6 22bf 8a1c df3e 6349 9abd a556 35be
00000030: 32f1 033f c4b7 723e ef3b c8bd f592 99be
00000040: 26c6 84be 3131 f03e e7a7 3ebe f71e 6fbd
00000050: 5977 c4be 5276 903e e5c1 b8bd cd70 5b3e
00000060: 7b33 df3e 7ed3 b83e 5c2e a63e 15bd 083f
00000070: 63b1 ec3e 73f6 333f b4d2 a63e e588 9e3d

model.linear.weight f4 [1, 8]
1.0693656 -0.31386143 1.3063397 -1.1923769 0.86683184 -0.52176553 -1.3326135 1.2594048
00000000: f9e0 883f 72b2 a0be 2436 a73f ce9f 98bf
00000010: b1e8 5d3f 6d92 05bf 1493 aabf 2d34 a13f
