final_models/HAR_final_comb.pth (torch, 6794 bytes, 5 tensors)

model.lstm.weight_ih_l0 f4 [32, 28]
000000 bd 8d 53 3f 5c 86 a7 3e 0b f3 d7 bd b8 17 e7 3e
       0.8263815 0.32719696 -0.10544404 0.45135283
000010 8d 76 85 3d ed 84 49 3a 95 ce 83 3e b7 bd 6a be
       0.065167524 0.0007687349 0.25743547 -0.22923933
000020 dc 78 4e 3c d4 4d 75 be 99 b5 9d be b0 4f 1c bf
       0.012602057 -0.2395547 -0.3080261 -0.61059093
000030 d2 b1 8f bf 63 54 b2 be 87 bb 1c bf 32 ab fe be
       -1.1226141 -0.34830007 -0.61223644 -0.49739987
000040 92 10 91 be 07 6c 29 bf 63 8c 45 bf 70 83 41 bf
       -0.28332955 -0.6618046 -0.7716734 -0.7559118
000050 66 a7 5d bf a4 24 fe be 52 62 d8 be 43 54 d9 be
       -0.86583555 -0.4963733 -0.42262512 -0.424471
000060 e4 fe 94 be 85 78 02 bf d9 5b 9e be df 21 0e bf
       -0.29100716 -0.5096515 -0.3092945 -0.55520433
000070 83 24 d8 3e b3 08 de 3e 91 12 01 bf 7b 4e 34 3f
       0.42215356 0.43366012 -0.50418955 0.7043225
000080 96 56 e2 be 92 25 ab be bd 0d 49 3f 7c 2c 1f 3e
       -0.44206685 -0.334271 0.7853659 0.15544313
000090 6f d6 26 bd 41 86 b3 be 5f ef 3a be 6e a9 1f bd
       -0.040731844 -0.35063365 -0.18255375 -0.03897994
0000a0 e5 b8 ad be f7 be 4d be 9c 2f 96 bd 57 69 1d 3d
       -0.33930126 -0.20092379 -0.073332995 0.038430538
0000b0 60 d9 3c 3e ec 53 a6 3c eb 38 7e 3e b0 fe de be
       0.18442297 0.020303689 0.248264 -0.43553686
0000c0 bc 7e dd be db 13 a2 3d c7 b4 50 bb 40 22 88 bd
       -0.43260753 0.079139434 -0.0031846033 -0.06647158
0000d0 87 eb 96 be 30 c6 23 3d e0 6d 5e 3e 12 72 2d 3d
       -0.29476568 0.03998393 0.21721601 0.042345114
0000e0 78 60 0a 3e c7 ed 89 3e 00 c6 a3 bd c7 c4 3f 3e
       0.13513362 0.26939222 -0.0799675 0.18727408
0000f0 c2 3e 3f 3d 81 18 62 3e f8 ed a8 bc 19 0d 90 3e
       0.04669071 0.2207966 -0.020621285 0.28134993
000100 c6 37 18 be 3b c4 2a 3e cd 98 9b be c2 f9 38 bf
       -0.14865026 0.16676418 -0.30390015 -0.722561
000110 3f 03 11 bf 4d 1f 6b 3d 80 94 5e bd 7f 28 4c bf
       -0.5664558 0.057402898 -0.05434084 -0.7974929
000120 ac b1 d4 be 5c 41 d5 be 58 ab a2 be 2e 91 e3 be
       -0.41541803 -0.41651428 -0.3177135 -0.444467
000130 47 6f 3f bf df 07 d5 be 5f be 60 bf 59 4f 4c bf
       -0.7477917 -0.41607568 -0.87790483 -0.79808575
000140 41 de 3f bf b8 86 35 bf c9 c2 4b be 61 33 5c be
       -0.7494851 -0.7090869 -0.19898523 -0.21503974
000150 1b be 15 3f 5f 36 48 3e c7 d0 46 be c0 84 c2 3e
       0.584932 0.19551991 -0.1941558 0.37991905
000160 d0 da 11 be 51 56 92 bd 6d 00 8c 3e 1a 5c a1 3e
       -0.14243627 -0.0714537 0.27344075 0.3151558
000170 77 23 de 3e 35 a3 c6 bd 9e 89 0c bd c0 02 25 be
       0.43386433 -0.09699098 -0.03431093 -0.1611433
000180 1b 3a 92 be 77 f5 03 bc 53 77 36 bf d7 56 3c bf
       -0.28559956 -0.008054129 -0.71275824 -0.7357001
000190 72 5b e6 be 32 50 67 be 16 e1 34 bf 81 c2 2b bf
       -0.44991642 -0.22589186 -0.70655954 -0.67093664
0001a0 c2 40 21 bf d0 81 25 be 53 80 ad be 63 03 b4 be
       -0.6298944 -0.16162801 -0.33886966 -0.35158834
0001b0 1a 38 59 be 43 b8 f1 be 1c 45 39 bf a2 d5 3e bf
       -0.21212807 -0.47210893 -0.7237108 -0.7454473
0001c0 68 a5 94 3e 2a 3d 08 3d ff e6 92 3d c8 96 32 3f
       0.29032445 0.033261456 0.07172965 0.69761324
0001d0 94 98 1b be 09 4c 04 be e4 91 69 3e 6b 49 16 3e
       -0.15194923 -0.1291963 0.22809559 0.14676444
0001e0 0d 00 5e bd 1a 27 fb bd 18 60 1b 3d 84 87 26 bf
       -0.054199267 -0.122633174 0.03793344 -0.6505053
0001f0 27 d2 07 bd da b1 79 be 8d 46 94 3e 9f b1 93 be
       -0.0331594 -0.24384251 0.28960076 -0.28846452
000200 61 ac 33 bf f9 f4 ef be 19 5a 30 bf 06 15 c5 be
       -0.70184904 -0.46866587 -0.6888748 -0.38492602
000210 95 f6 e5 bd 85 bf b0 be 27 8f 2c bf c7 b7 1b bf
       -0.112286724 -0.34521118 -0.67405933 -0.60827297
000220 c5 5c a8 be 6d c5 2d be 03 9e bb be 9e 4a 6e be
       -0.32883278 -0.16969843 -0.3664399 -0.23270652
000230 4e 30 15 3f 0c 18 35 3f 3d 60 0c 3f 5a 6b 22 3f
       0.5827683 0.7073982 0.5483435 0.63445055
000240 7c 22 1d 3e ef d9 c0 3e 66 33 d4 3e 9f 22 9c bc
       0.15345186 0.3766627 0.41445464 -0.019059477
000250 10 c5 9b be 9b 0a 03 3d 09 fe 13 3f 2d c0 11 bf
       -0.30423784 0.031992536 0.578095 -0.5693386
000260 23 21 a5 be dc 48 0d bf 5d e1 7b be 65 66 5f be
       -0.32251844 -0.551893 -0.24597688 -0.21816404
000270 f6 42 4b be eb cb 3d bf d0 bd 8e be 4e 8f 18 bf
       -0.19849762 -0.7413928 -0.2787919 -0.59593666
000280 c4 09 19 be c8 fa d2 be ba ba 53 be c1 53 34 bf
       -0.14945132 -0.41206956 -0.206767 -0.704403
000290 11 46 41 bf 9d 5a 45 bf 3a c2 3c bf 5d a1 26 bf
       -0.7549754 -0.7709139 -0.73733866 -0.6508997
0002a0 a6 35 52 3e 72 ab 00 3e 36 a8 24 3d c6 fd 56 3e
       0.20528278 0.12565401 0.04019948 0.20995244
0002b0 00 db 52 3e d2 96 17 3d 2c be 74 3e ca 0c a1 be
       0.20591354 0.037009068 0.2390067 -0.3145507
0002c0 64 20 f4 be c7 5a ef be cb 7d 4a 3e 32 4c 88 be
       -0.47680962 -0.46748945 0.19774549 -0.26620632
0002d0 20 78 a2 be 0a fa 41 bf 34 2d 2d bf 09 a0 54 bd
       -0.31732273 -0.75772154 -0.676471 -0.051910434
0002e0 cb c7 3f be e2 06 06 bf 8c 0a 4b be 3c 2c 0d bf
       -0.18728559 -0.5235425 -0.19828242 -0.5514562
0002f0 2f bc f5 be 4c 07 8b be ef a5 d4 be ed 40 14 bf
       -0.47995135 -0.27154005 -0.41532847 -0.5791157
000300 b0 07 f1 be 2e db c7 bd 98 6a eb be b3 32 fc be
       -0.47076178 -0.09758602 -0.45979762 -0.4925743
000310 1f de 78 3e 91 e1 fb 3e 5d 02 81 bb 20 82 57 3f
       0.24303482 0.4919553 -0.0039370493 0.8418293
000320 59 0b f5 3d 78 22 85 bd 5d fb 24 3f 95 0d d3 3e
       0.11965055 -0.06500715 0.6444605 0.412213
000330 af 9b 77 be a3 2f e7 be c6 55 70 bc 3a 7f 0c bf
       -0.24180482 -0.4515353 -0.0146688875 -0.5488163
000340 5f 5a f5 be 51 e1 f4 be 3e a9 02 bf 84 2f a2 be
       -0.4792051 -0.47828153 -0.51039493 -0.31676877
000350 90 c6 a6 be 36 95 e2 be 18 d6 f9 be 5f d2 37 bf
       -0.32573366 -0.44254464 -0.48796153 -0.71805376
000360 5d 69 23 bf 0e 12 b1 be a8 d6 e0 be 35 19 26 be
       -0.63832647 -0.34584087 -0.4391377 -0.16220553
000370 b3 ca 15 be 33 65 a1 be 32 df c4 3d c1 bc bf bd
       -0.14628105 -0.3152252 0.096128836 -0.09362174
000380 de ad 27 3f fd 30 37 3f c6 10 dc 3e 16 42 69 3c
       0.65499675 0.71559125 0.42981547 0.0142369475
000390 a4 97 68 be 92 7f a3 3e 01 c9 4c be 22 03 82 bf
       -0.22714096 0.31933266 -0.19998552 -1.0157206
0003a0 ca bf 30 bf be 44 14 be a4 a7 86 be 98 62 7c be
       -0.69042647 -0.14479348 -0.26299775 -0.24646986
0003b0 84 89 33 bf c0 fb 05 bf d0 33 d5 3e 8c a8 19 bf
       -0.7013171 -0.52337265 0.41641092 -0.6002281
0003c0 52 8b 71 bf 85 97 38 3e 7c 9a 2f bf 53 9c 0b 3e
       -0.9435321 0.1802655 -0.685951 0.13633852
0003d0 c5 ea e8 3d af 58 65 be 14 48 6f be 27 fc 92 bd
       0.11372904 -0.22397111 -0.2336734 -0.071770005
0003e0 0f 80 06 be 35 49 08 bf 90 75 9c be 6b 57 be bd
       -0.13134788 -0.53236705 -0.30558443 -0.092940174
0003f0 ed d9 e9 3e 66 7c bc bd 17 c6 19 bf 20 6d d3 3e
       0.45674077 -0.092034146 -0.60067886 0.41294193

model.lstm.weight_hh_l0 f4 [32, 8]
000000 e3 0e 58 3f 2e 93 c2 be 09 61 d4 3e 08 cb 3c bf
       0.84397715 -0.38002914 0.41480282 -0.737473
000010 28 08 58 bf 32 ab fa be d8 6a 2b bf a4 11 0f be
       -0.84387445 -0.48958737 -0.66959906 -0.13971573
000020 87 e9 d7 3c c7 72 cc bd a5 7b ad be cf 90 9c be
       0.026356472 -0.099828295 -0.33883396 -0.3057923
000030 f2 12 88 bd 14 a8 bc 3d b5 b4 0f 3f a6 74 45 be
       -0.066442385 0.09211746 0.5613511 -0.19282779
000040 e9 e1 fd 3e a4 df 61 be 81 e9 09 3f fd d3 c7 be
       0.49586418 -0.22057968 0.53871924 -0.39028922
000050 f4 ed b9 be 71 d7 35 bf dd 9b 4b bf aa 28 a7 bd
       -0.36314356 -0.7103186 -0.79534703 -0.08162053
000060 06 ac b5 3e 69 7a 87 be 16 d3 d7 3e e4 e6 57 be
       0.35482806 -0.2646058 0.42153233 -0.21084172
000070 8a 5b b8 be fa d1 9d be 33 55 f9 bd a8 32 60 3d
       -0.3600734 -0.30824262 -0.121744536 0.05473581
000080 ed 85 a0 bc df 95 f6 3d 72 8c b5 3e ca 62 3e be
       -0.01959511 0.120403044 0.35458714 -0.18592373
000090 94 6a ce bd bb 46 90 3b 24 a9 50 be 97 80 96 be
       -0.10078922 0.004402963 -0.20377022 -0.2939498
0000a0 49 7b 70 bd 42 a5 06 bf c5 db bb 3e 2b 19 06 bf
       -0.058711324 -0.52595913 0.36691108 -0.52382153
0000b0 ed e5 0f bf 9a 62 ba bb c3 c6 d7 be c5 c4 b2 be
       -0.56210214 -0.0056880238 -0.4214383 -0.34915748
0000c0 d3 26 0d 3e 13 8b 93 be 1e 31 92 3f 4a ca 09 bf
       0.13784342 -0.28817043 1.1421239 -0.53824294
0000d0 b5 0b 3a bf 3b b0 88 be 43 eb 46 bf ec 06 84 be
       -0.72674114 -0.26696953 -0.7770273 -0.2578653
0000e0 e5 32 62 bc 95 d8 18 3e c6 5a aa 3e 01 9f af be
       -0.0138060795 0.1492637 0.3327238 -0.34300998
0000f0 73 39 a8 be e7 d2 e9 be 62 63 28 3d 0d b2 56 be
       -0.3285633 -0.45668718 0.041110404 -0.20966358
000100 56 a6 63 bf fd 46 63 3d 98 d5 37 bf 8f e8 9a 3e
       -0.88925683 0.05548762 -0.71810293 0.30255553
000110 36 ae f4 3e 9a bc fe 3e 95 47 5b 3f 3f 86 9b 3e
       0.47789162 0.49753267 0.856561 0.3037586
000120 0a d4 33 3e 7e a3 93 bc df ca 6d be 62 15 b8 bd
       0.17561355 -0.018022295 -0.2322192 -0.089884534
000130 03 58 1a be c8 2c 0a 3f d7 e1 1e 3e 01 72 87 be
       -0.15072636 0.5397458 0.15515839 -0.26454166
000140 45 e3 a9 be b0 bd 29 bd 0f a3 1c bf 40 14 39 3e
       -0.33181205 -0.041440666 -0.6118631 0.18074131
000150 95 63 cc 3e a9 38 e5 3e 6f c2 00 3f 06 59 8a 3e
       0.39919725 0.4476979 0.5029668 0.27021044
000160 2a 6e 2c 3e 04 ec b6 3e 5b a7 d2 be bd 1b 00 3f
       0.16838899 0.3572694 -0.41143307 0.50042325
000170 ae 81 f2 3e ff 24 47 3d dc 85 ec 3e cd 33 44 3f
       0.47364563 0.048619267 0.46195877 0.7664154
000180 16 85 af 3c af ae 88 3e 46 19 f3 bd 9b 6b c8 3d
       0.021425765 0.26695773 -0.11870055 0.09786149
000190 86 66 78 39 32 e4 a7 3d 7e 5b c0 3d 57 be ae 3d
       0.00023689316 0.08197822 0.09392451 0.08532398
0001a0 4c dd 5e bf 04 a3 91 3e fb 05 36 be e0 36 85 3d
       -0.8705642 0.28444684 -0.17775719 0.06504607
0001b0 05 2f 17 3f fd be 5e 3f af 3a fa 3e c1 17 11 3f
       0.5905612 0.87010175 0.48872897 0.5667687
0001c0 6c f9 d7 be 84 cb 9f bd af 99 2c be 95 c0 c9 3e
       -0.4218248 -0.078024894 -0.168555 0.3940474
0001d0 3d 69 54 3c 74 95 2e 3f 65 d6 60 3f 75 79 e5 3e
       0.012964544 0.681968 0.8782714 0.44819227
0001e0 8e ef 2b be bb f3 66 be cf c7 23 3f 0b 69 3f bf
       -0.16790602 -0.22553913 0.6397676 -0.7476966
0001f0 ec 84 22 bf 57 6a 1c be 3c 33 9e bd e3 6d c2 be
       -0.6348407 -0.1527494 -0.07724616 -0.37974462
000200 c9 9e 27 bd 08 19 80 3f ea ea 90 be a1 32 dd 3e
       -0.040922914 1.0007639 -0.28304225 0.4320269
000210 bf 0b 0c 3f 65 90 8f be 26 da d4 bd aa b4 30 3f
       0.54705423 -0.28039852 -0.10393171 0.6902567
000220 ef 22 10 3f b4 9f 60 3f 9a 48 97 be bf 2b d0 be
       0.56303304 0.8774369 -0.29547578 -0.40658376
000230 8c e7 8f 3d 27 7c 47 be a1 5a 96 3e bd 44 a0 3e
       0.07026586 -0.19480954 0.2936602 0.31302443
000240 15 5e 23 3e 34 ff 5b 3f e6 15 bf 3d 63 aa 07 3f
       0.15953858 0.85936284 0.09330349 0.52994365
000250 d6 69 2c 3f 0a 6f d9 3c 63 8e 39 bd 18 bb c6 3e
       0.6734899 0.026542205 -0.045301806 0.38814616
000260 5a d1 23 3d b0 ff 1c bf 9e d1 40 3e 98 28 f3 be
       0.039994575 -0.6132765 0.18829963 -0.47491908
000270 a7 a7 bf be 6e fc 80 be b4 b7 5b 3c 09 7d 84 bf
       -0.37432596 -0.2519259 0.013410497 -1.0350658
000280 3b 14 4b 3e ae 62 0a be f9 ab 27 3e da b0 bd be
       0.19831936 -0.13514206 0.16374196 -0.3704899
000290 28 4c 3a bf 3b 91 f6 bd fd ff 81 3e c0 68 0e bf
       -0.72772455 -0.12039419 0.25390616 -0.55628586
0002a0 3d b1 e4 bd 6c 8b c4 be 92 74 72 bd 48 7c e9 bd
       -0.11166618 -0.3838762 -0.0591932 -0.11400658
0002b0 98 90 49 bf 14 d4 42 be 9a ee 4c 3d 0e 0a 5a bf
       -0.7873626 -0.19026214 0.050032236 -0.8517159
0002c0 18 07 3e be 79 2f 1a bf 28 35 de bd ab 5f cc be
       -0.18557394 -0.6022869 -0.108499825 -0.3991674
0002d0 86 ed ad be 06 bd dd 3c 75 ba f3 3d 5c 34 11 bf
       -0.33970279 0.027067672 0.11900798 -0.5672052
0002e0 71 c1 3a 3f c2 5c 30 3f b6 b2 f3 be 1c 41 cc 3d
       0.7295142 0.6889154 -0.47597283 0.09973356
0002f0 e9 fb c1 3e ed 7c 0a be de df d3 3e 68 bf ab 3e
       0.37887505 -0.13524218 0.41381735 0.3354447
000300 31 24 41 3d 84 a8 00 be 0f f7 10 3f 6d c1 91 bf
       0.047153655 -0.12564284 0.5662698 -1.1387154
000310 f6 71 16 bf a6 6a 67 bb bf 0d 2f 3d fa 71 2a bf
       -0.5876764 -0.003531137 0.04273772 -0.66580164
000320 4f 19 88 3e af 2a a4 bd e9 33 a7 3e 57 6c 3c bf
       0.2658181 -0.08015954 0.32656792 -0.73602813
000330 c6 ea 66 bf 4b 72 a3 b9 88 b8 9a 3d 1b f3 e2 be
       -0.90201986 -0.00031174938 0.07554728 -0.443261
000340 25 ad a1 3e 16 cc 09 be 07 c4 ce 3e a0 89 e6 be
       0.3157741 -0.13456759 0.40383932 -0.45026875
000350 b9 dc b5 be 9b fd 50 3d c5 f5 f8 bd 5e 11 05 be
       -0.3551996 0.051023107 -0.12156252 -0.12994906
000360 d1 42 e0 3e e0 98 62 be c2 67 a3 3e 39 25 00 bf
       0.43800977 -0.2212863 0.31915098 -0.500568
000370 98 80 1f bf 93 45 df be 9f bd 3f 3d b3 4a 00 bd
       -0.62305593 -0.43607768 0.046811696 -0.03132124
000380 0c d8 f4 3e 18 99 e0 bd 1d 9f ee 3e 5e ad e9 bd
       0.4782108 -0.109667 0.4660577 -0.1141002
000390 76 06 25 3e 0b fa e4 3d d2 ab e0 bb 1b 2d 7d be
       0.16115746 0.111805044 -0.00685642 -0.24724238
0003a0 07 73 5a 3d d1 51 2c bf 4e 9e 82 3e f2 1c 23 bf
       0.053332355 -0.6731234 0.25511402 -0.6371604
0003b0 70 e8 47 bf ad 04 cf be 28 39 2d be 94 12 85 be
       -0.78089046 -0.40433255 -0.16916335 -0.25990736
0003c0 7a a6 22 3e b5 ea af be 74 b8 ae 3e 96 65 34 bf
       0.15883818 -0.34358755 0.34125102 -0.7046751
0003d0 df a2 c3 be 2c 83 dd bc 6e 29 22 bf c9 80 2d bf
       -0.38210198 -0.027040087 -0.63344467 -0.67774636
0003e0 a7 9d e5 bb 2c 77 c7 be be 48 0a 3f 84 94 68 bf
       -0.007007319 -0.38958108 0.54017246 -0.90851617
0003f0 7d b8 80 be 9a 91 05 bf b1 df 97 be 42 ed 9e be
       -0.25140753 -0.52175295 -0.2966285 -0.31040388

model.lstm.bias_ih_l0 f4 [32]
000000 05 95 76 3f 85 d7 28 3d 31 02 08 3f d0 a5 11 3f
       0.96321136 0.04122116 0.53128344 0.56893635
000010 3d 33 50 3d bb dd 55 3f 9f d9 19 3f ee 15 03 3f
       0.050830115 0.8354146 0.6009769 0.5120534
000020 03 c8 86 3c 32 39 43 3f b7 ab b9 be 05 9a 93 be
       0.016452795 0.7625915 -0.3626382 -0.28828445
000030 6e 27 c0 be 41 e1 15 bf c1 fd 95 be a5 66 9b 3e
       -0.37530082 -0.58546835 -0.2929516 0.3035175
000040 3a 02 2e 3c ca 07 fa 3e 0c 25 8e 3e af 53 14 be
       0.010620648 0.48834068 0.2776264 -0.14485048
000050 e5 a2 96 bc eb b2 10 3e 04 1d 48 3e 11 3b 0c 3f
       -0.018388221 0.14130752 0.19542319 0.5477763
000060 54 db 38 3f 06 9b 53 3f 68 7d 7d 3e 86 f7 b1 3e
       0.7220967 0.8265842 0.2475487 0.34759158
000070 01 66 4e 3c 27 c7 c6 3e e6 7a 39 3f e0 6c 1c 3f
       0.012597562 0.38823816 0.72453153 0.6110363

model.lstm.bias_hh_l0 f4 [32]
000000 d8 95 ea 3e db b9 a9 3e a6 07 1d 3f ab 4b 60 3f
       0.45817447 0.3314961 0.61339796 0.8761546
000010 84 7b 1c 3e bf 95 90 3e a6 e9 52 3c 59 c0 18 3f
       0.15281492 0.28239247 0.012873089 0.596685
000020 93 34 84 3e 56 41 f6 3d 06 3f 10 bf 8f 14 54 bd
       0.2582136 0.120241806 -0.56346166 -0.05177742
000030 d0 cc 20 be a0 43 68 be ab a1 26 bf 43 cf 3f 3f
       -0.1570313 -0.22682047 -0.65090436 0.7492563
000040 98 35 a2 bd 9d e6 19 3e 95 97 ac be 52 b8 f5 bd
       -0.079203784 0.15029378 -0.33709398 -0.11998047
000050 fd b8 e3 3e 9b c0 97 be b6 e0 bf bd 40 bc a0 3d
       0.44477072 -0.29639134 -0.09369032 0.07848406
000060 5a a2 8a 3f 13 8c 3b 3f bc 2e 3a 3f 72 27 ba 3e
       1.0830796 0.7326061 0.7272756 0.3635822
000070 f5 95 4d 3d d0 f5 62 3f 18 49 92 3d 27 c6 18 3f
       0.05019184 0.8865633 0.07142848 0.59677356

model.linear.weight f4 [1, 8]
000000 bf c0 ae bf 24 65 94 bf 25 f5 c8 bf b2 19 c9 3f
       -1.3652571 -1.1593366 -1.5699812 1.5710967
000010 d4 21 95 3f cb 86 c4 3f 27 a1 af 3f 30 95 41 bf
       1.1650949 1.5353636 1.3721055 -0.7561827
